experiments/linear_probe/epoch7.ckpt (torch, 463423 bytes, 2 tensors)

weight f4 [10, 11552]
0	0xbbc8f50f	-0.006132729
1	0x3c07bcf2	0.008284794
2	0x3b26daef	0.0025460084
3	0x397a817e	0.00023890098
4	0x3bcbdb05	0.0062211775
5	0x3b8dc4c3	0.0043264343
6	0x39bbf518	0.00035850029
7	0xbc031c6d	-0.008002383
8	0xbc1c56f1	-0.009542213
9	0xbc2245b1	-0.009904311
10	0xbbefdfe2	-0.00732039
11	0xba44b7e1	-0.0007504207
12	0xbb2eefbe	-0.002669319
13	0x3a9bb056	0.0011878114
14	0x3bedcff7	0.0072574574
15	0x3b97b659	0.004629892
16	0xbaae4073	-0.0013294354
17	0x3b21cd24	0.0024688924
18	0x3bb31840	0.0054655373
19	0xbbcadd4d	-0.006190932
20	0x3ba28f48	0.004960928
21	0xba922aa1	-0.001115162
22	0xbbd98934	-0.0066386703
23	0xbbeb29e5	-0.007176625
24	0xbc4c69bc	-0.012476381
25	0x3b8f9a12	0.0043823803
26	0x3b780a16	0.0037847809
27	0x3b91d467	0.004450369
28	0x3b3c3fe7	0.0028724612
29	0xbc00ccd7	-0.007861338
30	0x3bd92c92	0.0066276276
31	0x3bfd1053	0.0077228933
32	0xbb5e7e53	-0.0033949807
33	0xba5f6276	-0.0008521447
34	0x3aa80e67	0.0012821675
35	0xbb2b1724	-0.0026106322
36	0xbbe79b1b	-0.0070680506
37	0x3ad6c043	0.0016384203
38	0x3be099af	0.006854258
39	0xbb006a4d	-0.001959461
40	0xbc0c9a5c	-0.008581724
41	0xbc246bc1	-0.010035456
42	0x3ada5592	0.0016657582
43	0x3a1c1def	0.0005955388
44	0xba3523ed	-0.00069099554
45	0x3b0c985c	0.0021453118
46	0x3b11a168	0.002222145
47	0xbb6a6727	-0.003576705
48	0xbb2e6c71	-0.002661493
49	0x3b06811b	0.002052373
50	0xbb467118	-0.0030279811
51	0x3b8431d3	0.00403426
52	0xbbc6f4a7	-0.0060716453
53	0x3b9b93bb	0.0047478355
54	0x3b09dd6a	0.0021036514
55	0xbb4493cc	-0.002999532
56	0xbb7268b7	-0.0036988684
57	0x3b1c962e	0.0023893225
58	0x3a331a57	0.0006832233
59	0xbbc3ba74	-0.0059731547
60	0x3b21570c	0.0024618534
61	0x3b3376de	0.0027384083
62	0x3ab86cbb	0.001407049
63	0x3ba13085	0.004919114
64	0xbc601288	-0.013676293
65	0xbc2c88b9	-0.010530644
66	0xbbedb613	-0.007254371
67	0xbcfb4818	-0.030674025
68	0x3b7c7c80	0.0038526356
69	0x3b4bf762	0.0031122793
70	0x3ba0e15d	0.004909678
71	0xba01cbfa	-0.00049513543
72	0x3bcccde9	0.0062501323
73	0x3bc4ba12	0.0060036266
74	0x3b163aec	0.0022923304
75	0xbbd0d567	-0.006373096
76	0xbb4bc7a0	-0.0031094328
77	0xbbe5a3fc	-0.007008074
78	0xbbc6c60f	-0.006066091
79	0x3baa75a9	0.0052020145
80	0x3b86dea8	0.004115898
81	0xbbc8433b	-0.00611153
82	0xbb5d31ad	-0.0033751533
83	0xbc2e273f	-0.010629474
84	0xbc715346	-0.014729327
85	0xbcaa2293	-0.02076844
86	0xbc92253b	-0.017840018
87	0xbb729b5b	-0.0037018869
88	0xbb91a221	-0.004444376
89	0xbc5fb8a7	-0.013654864
90	0xbb67d4ed	-0.0035374716
91	0x3c15b166	0.009136533
92	0x3bb107a0	0.0054025203
93	0x3b30b996	0.0026966087
94	0x3be733b0	0.007055722
95	0x3be9d271	0.0071356823
96	0xbc0bac37	-0.008524946
97	0x3bcbda04	0.006221058
98	0xba3af9c4	-0.0007132555
99	0xbb206b89	-0.0024478158
100	0x3bf525ee	0.007481328
101	0xbbbce8d7	-0.0057650614
102	0xb9c3308f	-0.00037229477
103	0xbc63dfe5	-0.013908361
104	0xbc867e48	-0.016417637
105	0xbb16c3d5	-0.0023004909
106	0xbc4cac0c	-0.012492191
107	0xbbe30f47	-0.0069293114
108	0x3b926338	0.004467394
109	0xbbcea04b	-0.0063057295
110	0x3b6807ad	0.0035404966
111	0x3ab3a21c	0.0013704929
112	0xbaa60104	-0.0012665098
113	0xbc12cbc5	-0.008959715
114	0x3bb81af5	0.005618448
115	0xbc20c33e	-0.009812174
116	0xbadff410	-0.0017086286
117	0x3bbe0953	0.0057994514
118	0xbb8597dd	-0.0040769414
119	0xbae5e098	-0.0017538248
120	0x3b8e840d	0.004349238
121	0xbbe6a56e	-0.0070387637
122	0xbc0f0410	-0.008728996
123	0xbbd67c69	-0.0065455926
124	0x3b8a4515	0.004219661
125	0xbb0e9078	-0.002175359
126	0xba7bb8f6	-0.00096024515
127	0x3ae755d1	0.0017649477
128	0x3bd668f3	0.0065432726
129	0x3bdc5f8c	0.0067252573
130	0xbb18490e	-0.0023236903
131	0x3af7dd19	0.0018910497
132	0xbb762907	-0.0037561075
133	0xbc0a530b	-0.008442651
134	0xbc01a2d1	-0.007912354
135	0x3c0b99ff	0.008520602
136	0xbaa6819b	-0.001270342
137	0xbbf5402b	-0.007484456
138	0xbb198e71	-0.002343085
139	0xbcb0794a	-0.02154221
140	0xbc3f6c68	-0.011683561
141	0xbc677ed5	-0.01412936
142	0xbc27726c	-0.010220151
143	0xbb431ff6	-0.002977369
144	0xbc6cc20b	-0.01445056
145	0xbaa422e8	-0.001252261
146	0x3afa7efb	0.001911133
147	0x39b0d1c8	0.00033725635
148	0xbbbbc068	-0.0057297237
149	0x3b4eafcb	0.0031537886
150	0xbb94db2a	-0.004542728
151	0x3bc414a9	0.005983908
152	0x3bad6d80	0.0052925944
153	0xbc01e3be	-0.007927833
154	0x3b1dfb6c	0.0024106158
155	0xbbb2cfb8	-0.005456891
156	0xbc6274c0	-0.013821781
157	0xbc04a7a4	-0.008096609
158	0xbc00384b	-0.007825921
159	0xbb166210	-0.0022946633
160	0xbc0abfe5	-0.008468603
161	0x3a34d69c	0.00068984344
162	0x3b945116	0.0045262678
163	0xbc1af33b	-0.009457405
164	0xbc056534	-0.0081418045
165	0xbb99471d	-0.004677667
166	0x3b82befe	0.003990053
167	0xbb8e84d0	-0.0043493286
168	0xbbc89795	-0.0061215856
169	0x3ba0328d	0.0048888386
170	0xbb983534	-0.004645014
171	0xbacd29ae	-0.001565268
172	0xba0fcdc3	-0.0005485678
173	0xbc3ec8f3	-0.01164459
174	0xbbc1eb24	-0.0059179235
175	0xbce1318e	-0.02748945
176	0xbc0b3164	-0.008495662
177	0xbc88bb99	-0.016691016
178	0xbc970b22	-0.018437926
179	0xbba3dc14	-0.0050006006
180	0xbbd7bedd	-0.006584032
181	0x3a6b6109	0.0008978998
182	0x3afb0b16	0.0019153084
183	0xbc0c7059	-0.008571708
184	0xbc676fb1	-0.01412575
185	0xbb7d35bd	-0.0038636767
186	0xbbddc209	-0.0067675156
187	0x3b26659a	0.002539015
188	0x3bd5454c	0.006508505
189	0x39fdb2a2	0.00048389012
190	0xbb18108c	-0.0023203222
191	0x3b09f56d	0.0021050826
192	0xbb2e2208	-0.0026570577
193	0xbc12d337	-0.00896149
194	0xbc9618eb	-0.018322429
195	0xbc47943f	-0.012181341
196	0xbc8b1243	-0.016976481
197	0xbc8b7149	-0.017021792
198	0xbc01eb64	-0.007929657
199	0xbc6f470f	-0.014604344
200	0xbad67827	-0.0016362712
201	0xbc33074a	-0.010927031
202	0xbaf68a22	-0.0018809477
203	0xbc3cdc1b	-0.011527087
204	0xbbaf69fd	-0.005353211
205	0x3bb2711c	0.0054456126
206	0xb8b8baa5	-8.808569e-05
207	0xbc06a183	-0.008217218
208	0xb98c3d93	-0.00026748757
209	0xbc32cc5d	-0.010912982
210	0xba086a8e	-0.0005203866
211	0x3b4649a5	0.0030256298
212	0x3b9efa27	0.004851598
213	0xbcb022f9	-0.021501051
214	0x3a51f9b6	0.0008009927
215	0xbccb5f36	-0.024825674
216	0xbbf17842	-0.007369072
217	0xbc4de724	-0.012567315
218	0xbc7a12f2	-0.015263306
219	0x3b18cf54	0.0023316937
220	0xba0e0e55	-0.0005419006
221	0xbc2166f7	-0.009851209
222	0xbc40d123	-0.011768612
223	0xbc2e3dc9	-0.010634848
224	0xbc0ef3f8	-0.008725159
225	0x3bd75ca8	0.006572325
226	0xbbe63e1e	-0.007026448
227	0x3a8a1bdb	0.0010536866
228	0xba8256d0	-0.0009944085
229	0xba4b960e	-0.00077661953
230	0x3bdcd750	0.0067395344
231	0xba4e1447	-0.0007861298
232	0xbccca01e	-0.024978694
233	0xbd191468	-0.037372977
234	0xbc79c118	-0.015243791
235	0x3afb108a	0.0019154709
236	0xbb28dfa1	-0.002576806
237	0xbb9c3d54	-0.004768053
238	0xbc6873f4	-0.014187802
239	0x3b626b0c	0.0034548668
240	0x398e9214	0.00027193187
241	0x3ba00c51	0.0048842807
242	0x3be2e268	0.0069239624
243	0xbbdcb89d	-0.006735875
244	0xbc288fd7	-0.0102882
245	0x3a287a26	0.0006426893
246	0xbc2b7356	-0.01046451
247	0xbc227af6	-0.0099170115
248	0xbb4696e8	-0.003030235
249	0xbbdeddb6	-0.0068013323
250	0x3be9fa51	0.0071404357
251	0xbc6fa86e	-0.014627559
252	0xbc9fbf5d	-0.019500429
253	0xbc616c2e	-0.013758702
254	0xbbb6beb2	-0.005576932
255	0xba0dd0ea	-0.0005409854

bias f4 [10]
0	0xbf35a86f	-0.70960134
1	0xbf3d3929	-0.73915344
2	0xbf59288d	-0.848275
3	0xbf6927cd	-0.91076356
4	0xbf69f6f8	-0.9139247
5	0xbf695e62	-0.9115964
6	0xbf7534ef	-0.95783895
7	0xbf734aab	-0.9503581
8	0xbf75a156	-0.95949304
9	0xbf678dc7	-0.9045071
