experiments/linear_probe/epoch8.ckpt (torch, 463423 bytes, 2 tensors)

weight f4 [10, 11552]
0	0xbbc9781f	-0.0061483528
1	0x3c0765e0	0.008264035
2	0x3b24e5e1	0.0025161433
3	0x3867f393	5.5301538e-05
4	0x3bca5571	0.006174736
5	0x3b8bff93	0.00427241
6	0x3978fc36	0.00023745079
7	0xbc02eb61	-0.007990689
8	0xbc1cd531	-0.009572313
9	0xbc23739f	-0.009976297
10	0xbbef86c0	-0.0073097646
11	0xba41437a	-0.00073724205
12	0xbb2d0478	-0.0026400369
13	0x3a9b5f47	0.0011853956
14	0x3bed470c	0.0072411355
15	0x3b96de15	0.004604111
16	0xbab5d6ed	-0.0013873257
17	0x3b1994e6	0.0023434698
18	0x3baf088b	0.0053415946
19	0xbbc91b7c	-0.0061373096
20	0x3ba3b1d6	0.004995565
21	0xba8fe970	-0.0010979604
22	0xbbe1775e	-0.0068806848
23	0xbbffc71d	-0.0078057186
24	0xbc4ee36a	-0.012627462
25	0x3b8e8642	0.004349501
26	0x3b7673e8	0.0037605707
27	0x3b9072cb	0.0044082156
28	0x3b3b94f2	0.0028622714
29	0xbc00ddc2	-0.007865371
30	0x3bd8decc	0.0066183563
31	0x3bfe10da	0.0077534737
32	0xbb5d75bf	-0.0033792106
33	0xba411ffe	-0.0007367133
34	0x3aa97de7	0.0012931199
35	0xbb2a24db	-0.002596191
36	0xbbe8f5ca	-0.0071093785
37	0x3aca6520	0.0015441515
38	0x3be0e210	0.0068628863
39	0xbb00fc63	-0.0019681684
40	0xbc0d233a	-0.008614356
41	0xbc25925b	-0.010105695
42	0x3acbec41	0.001555808
43	0x3a1d61fc	0.00060036755
44	0xba32ee7f	-0.00068257
45	0x3b07f2c7	0.0020744072
46	0x3b0df850	0.0021662898
47	0xbb6b3a32	-0.0035892841
48	0xbb453389	-0.0030090532
49	0x3af8e3f4	0.0018988834
50	0xbb4720e4	-0.0030384595
51	0x3b84b46c	0.0040498283
52	0xbbc70615	-0.006073723
53	0x3b9bf914	0.004759917
54	0x3b0a425b	0.002109668
55	0xbb46c769	-0.003033126
56	0xbb73bb58	-0.0037190523
57	0x3b1a0fc8	0.0023507942
58	0x3a34a7c4	0.0006891454
59	0xbbc41e48	-0.005985055
60	0x3b1c75c4	0.0023873905
61	0x3b2f75a9	0.0026773012
62	0x3ab5f243	0.0013881404
63	0x3ba03ec9	0.004890297
64	0xbc64d5a4	-0.0139669515
65	0xbc320a1a	-0.010866666
66	0xbc05a5d5	-0.008157213
67	0xbd039fd0	-0.03213483
68	0x3b666147	0.0035153197
69	0x3b41f689	0.002959641
70	0x3ba0be5f	0.0049055065
71	0xba086043	-0.00052023324
72	0x3bcc5bd0	0.006236531
73	0x3bc4a640	0.006001264
74	0x3b154b57	0.0022780502
75	0xbbd132d8	-0.006384235
76	0xbb4bf1fe	-0.003111958
77	0xbbe59ca6	-0.0070071993
78	0xbbc6cb38	-0.006066706
79	0x3ba98c4d	0.005174196
80	0x3b83f995	0.004027555
81	0xbbc90e7a	-0.006135759
82	0xbb63d0be	-0.0034761871
83	0xbc31461a	-0.010819936
84	0xbc798d38	-0.015231423
85	0xbcb38a32	-0.021916483
86	0xbc9fc393	-0.019502437
87	0xbb85d65d	-0.004084392
88	0xbb9964aa	-0.0046811895
89	0xbc63ee18	-0.013911746
90	0xbb687b05	-0.0035473716
91	0x3c15a5d0	0.009133771
92	0x3bb13ce0	0.005408868
93	0x3b31030e	0.0027009877
94	0x3be7a23e	0.0070689013
95	0x3be88229	0.0070955944
96	0xbc0ba968	-0.008524276
97	0x3bcbb987	0.006217185
98	0xba4287b4	-0.0007420734
99	0xbb24d537	-0.00251515
100	0x3bf4b99b	0.007468415
101	0xbbcc7bf1	-0.006240361
102	0xba399a02	-0.0007080139
103	0xbc6aede9	-0.014338949
104	0xbc8d01c8	-0.017212763
105	0xbb45a9f5	-0.0030161117
106	0xbc534e3b	-0.01289707
107	0xbbe502f7	-0.006988879
108	0x3b925b55	0.004466454
109	0xbbce9c8b	-0.0063052825
110	0x3b673ea4	0.003528514
111	0x3ab18a30	0.0013545211
112	0xbaa3d2bb	-0.0012498716
113	0xbc12f01e	-0.008968381
114	0x3bb69049	0.0055713993
115	0xbc210bac	-0.009829443
116	0xbad922e5	-0.0016566186
117	0x3bbc73b3	0.005751097
118	0xbb8a5044	-0.004220994
119	0xbaeceab6	-0.001807532
120	0x3b8a37ed	0.0042180927
121	0xbbeb577a	-0.007182059
122	0xbc14c03c	-0.009079035
123	0xbbe4ed83	-0.0069863214
124	0x3b855185	0.004068556
125	0xbb15017c	-0.002273648
126	0xba837457	-0.0010029179
127	0x3ae3ae44	0.0017370661
128	0x3bd4e333	0.006496811
129	0x3bdba95a	0.006703538
130	0xbb1a3c34	-0.002353442
131	0x3af551bd	0.0018716377
132	0xbb758662	-0.0037464132
133	0xbc0bc9e1	-0.008532018
134	0xbc00d48e	-0.007863177
135	0x3c0b61aa	0.008507172
136	0xbab4515e	-0.001375716
137	0xbc0cc563	-0.008591983
138	0xbb295e55	-0.002584358
139	0xbcba50a7	-0.022743536
140	0xbc464de4	-0.0121035315
141	0xbc710016	-0.014709493
142	0xbc382118	-0.011238359
143	0xbb6656cb	-0.0035146947
144	0xbc7b796a	-0.015348772
145	0xbafd9d34	-0.0019349218
146	0x3aeb190e	0.0017936544
147	0x394dc70e	0.00019624477
148	0xbbbd3440	-0.005774051
149	0x3b4a695b	0.003088555
150	0xbb95713c	-0.0045606177
151	0x3bc3efff	0.0059795375
152	0x3bab7083	0.0052319183
153	0xbc01c870	-0.007921323
154	0x3b1b94cd	0.0023739815
155	0xbbc57a6f	-0.006026558
156	0xbc73eff2	-0.01488875
157	0xbc10bba5	-0.0088338
158	0xbc10ddb2	-0.008841919
159	0xbb2e36ac	-0.002658288
160	0xbc0f6f80	-0.008754611
161	0x39da4902	0.00041634595
162	0x3b8ecf73	0.004358226
163	0xbc200427	-0.009766615
164	0xbc095641	-0.008382381
165	0xbb9d36f0	-0.004797809
166	0x3b78b1c5	0.0037947756
167	0xbb9166a3	-0.004437284
168	0xbbcb7c93	-0.0062099188
169	0x3b9f8ba0	0.0048689395
170	0xbb9bea2b	-0.0047581396
171	0xbb10a44e	-0.002207059
172	0xba34a379	-0.00068908144
173	0xbc47610f	-0.012169137
174	0xbbe23a84	-0.0069039483
175	0xbceecae4	-0.02914948
176	0xbc1a34ff	-0.009412049
177	0xbc942c44	-0.018087514
178	0xbc9e5e5d	-0.019332105
179	0xbbb34fb9	-0.00547215
180	0xbbe3e320	-0.0069545656
181	0x3a34888a	0.0006886801
182	0x3ab50660	0.0013811104
183	0xbc185e7e	-0.009299872
184	0xbc70a544	-0.01468784
185	0xbb893c08	-0.0041880645
186	0xbbe71854	-0.0070524607
187	0x3b1fb0eb	0.0024366926
188	0x3bd400dd	0.0064698295
189	0x39d424b5	0.0004046314
190	0xbb32b3e1	-0.002726786
191	0x3af6da7b	0.0018833423
192	0xbb34008a	-0.0027466142
193	0xbc1de7e6	-0.009637808
194	0xbc9c32ed	-0.019067252
195	0xbc4e03f8	-0.012574188
196	0xbc92480c	-0.01785662
197	0xbc96ae1f	-0.018393574
198	0xbc0aabd4	-0.008463819
199	0xbc762844	-0.0150242485
200	0xbafbbd6d	-0.0019206234
201	0xbc380ba6	-0.011233246
202	0xbb0e594a	-0.00217207
203	0xbc42f581	-0.011899353
204	0xbbb94155	-0.00565354
205	0x3ba9a368	0.0051769502
206	0xb9266e0c	-0.0001587199
207	0xbc0749ae	-0.008257313
208	0xb9c50ac2	-0.00037582783
209	0xbc376a73	-0.011194813
210	0xba811a7f	-0.0009849815
211	0x3b45bbfa	0.0030171857
212	0x3b962697	0.004582237
213	0xbcb86d96	-0.022513192
214	0x39c84c44	0.00038203795
215	0xbcd4ba51	-0.025967749
216	0xbc06a466	-0.008217907
217	0xbc52184d	-0.012823177
218	0xbc826e88	-0.015921846
219	0x3b02552b	0.001988719
220	0xba3ef5b9	-0.00072845403
221	0xbc26bdc1	-0.010177077
222	0xbc447978	-0.011991851
223	0xbc35301e	-0.011058835
224	0xbc12bfb2	-0.008956837
225	0x3bd6cf06	0.006555441
226	0xbbe803fd	-0.0070805536
227	0x3a828b09	0.0009959649
228	0xba8d95eb	-0.0010802125
229	0xba7c4928	-0.0009623938
230	0x3bdb62d0	0.006695129
231	0xba9b4842	-0.0011847096
232	0xbcddb7d1	-0.02706519
233	0xbd228d7c	-0.03968571
234	0xbc847b00	-0.016171932
235	0x3ade54cd	0.0016962528
236	0xbb40589c	-0.002934969
237	0xbbb296fb	-0.005450127
238	0xbc6d335c	-0.014477577
239	0x3b5a6791	0.003332589
240	0xb9017819	-0.00012347139
241	0x3b977bd6	0.0046229167
242	0x3bdecad0	0.0067990795
243	0xbbe9e36a	-0.0071377056
244	0xbc2f98f6	-0.010717621
245	0x39c7e177	0.00038124222
246	0xbc2e301b	-0.010631586
247	0xbc24a6bf	-0.010049521
248	0xbb55787f	-0.0032573042
249	0xbbdf1807	-0.006808284
250	0x3be8ed50	0.007108368
251	0xbc8315d0	-0.016001612
252	0xbcadd595	-0.021220008
253	0xbc6753de	-0.014119117
254	0xbbba50e1	-0.005685911
255	0xba52eb57	-0.00080459326

bias f4 [10]
0	0xbf373120	-0.71559334
1	0xbf3f3eff	-0.747055
2	0xbf5b7058	-0.857183
3	0xbf6bb2a8	-0.9206948
4	0xbf6c55e6	-0.9231857
5	0xbf6c940a	-0.9241339
6	0xbf78959c	-0.97103286
7	0xbf7632e5	-0.9617141
8	0xbf78b5cb	-0.97152394
9	0xbf6a8ee9	-0.91624314
