experiments/linear_probe/epoch4.ckpt (torch, 463423 bytes, 2 tensors)

weight f4 [10, 11552]
0	0xbbc6f759	-0.0060719666
1	0x3c08edd4	0.008357484
2	0x3b2cf82d	0.0026393041
3	0x3a5d1a3f	0.0008434392
4	0x3bd19f37	0.0063971537
5	0x3b93ab5b	0.004506511
6	0x3a42c597	0.0007429956
7	0xbc0383d9	-0.00802704
8	0xbc1ac022	-0.009445222
9	0xbc1e6f16	-0.00967004
10	0xbbf0b6d1	-0.007346012
11	0xba4cb228	-0.000780853
12	0xbb346610	-0.0027526654
13	0x3a9f1b7b	0.0012138927
14	0x3befc716	0.007317434
15	0x3b9b1292	0.0047324384
16	0xba96e684	-0.0011512791
17	0x3b3c407f	0.0028724966
18	0x3bbfe5c4	0.0058562476
19	0xbbcfda1e	-0.0063431403
20	0x3b9f71f8	0.004865881
21	0xba98bc83	-0.001165286
22	0xbbbeb2bc	-0.0058196466
23	0xbba2a683	-0.0049636974
24	0xbc43c8fd	-0.011949775
25	0x3b9370be	0.004499524
26	0x3b7d924d	0.0038691938
27	0x3b9633b2	0.0045837993
28	0x3b3ee262	0.0029126634
29	0xbbff2d0c	-0.0077873524
30	0x3bdacc69	0.0066771996
31	0x3bfa23cc	0.007633662
32	0xbb61369e	-0.003436483
33	0xba9be706	-0.0011894412
34	0x3aa61325	0.00126705
35	0xbb2d7357	-0.0026466453
36	0xbbe32169	-0.006931473
37	0x3afe2600	0.0019389987
38	0x3bdfe566	0.0068327663
39	0xbafc01c8	-0.0019226605
40	0xbc0ac18d	-0.008468998
41	0xbc209c33	-0.009802866
42	0x3b04fb9b	0.002029157
43	0x3a1abf6c	0.0005903158
44	0xba3a6563	-0.0007110445
45	0x3b1c58d8	0.0023856666
46	0x3b1dea48	0.0024095941
47	0xbb668dc0	-0.0035179704
48	0xbabb63c3	-0.0014296699
49	0x3b285f3d	0.0025691532
50	0xbb44104b	-0.0029916938
51	0x3b82b212	0.003988513
52	0xbbc5eeaf	-0.006040416
53	0x3b9a73fa	0.0047135325
54	0x3b092fb0	0.0020932965
55	0xbb3d805a	-0.0028915615
56	0xbb6e2c08	-0.0036342163
57	0x3b243d32	0.002506089
58	0x3a2e82fa	0.000665709
59	0xbbc27ee3	-0.005935536
60	0x3b30b496	0.0026963106
61	0x3b409769	0.0029387122
62	0x3ac0a09e	0.0014696305
63	0x3ba48aaa	0.005021413
64	0xbc4f3060	-0.012645811
65	0xbc1920d7	-0.009346209
66	0xbb857bb1	-0.004073583
67	0xbcd162ee	-0.025559869
68	0x3ba3456a	0.00498264
69	0x3b6d73f7	0.003623245
70	0x3ba184cf	0.004929162
71	0xb9d9e8d7	-0.00041562945
72	0x3bce3460	0.0062928647
73	0x3bc51cec	0.0060154106
74	0x3b194ecd	0.0023392916
75	0xbbcf5a12	-0.006327876
76	0xbb4b1f84	-0.0030994127
77	0xbbe5a93a	-0.007008699
78	0xbbc6ab15	-0.006062875
79	0x3bad6e65	0.005292701
80	0x3b906c7e	0.0044074645
81	0xbbc5b0f6	-0.0060330583
82	0xbb47488b	-0.003040823
83	0xbc23a0e6	-0.009987092
84	0xbc5596c7	-0.013036436
85	0xbc89ec34	-0.016836263
86	0xbc46295c	-0.012094822
87	0xbb1d9f84	-0.0024051378
88	0xbb6fa5cb	-0.0036567326
89	0xbc507fd7	-0.012725792
90	0xbb6587ea	-0.0035023638
91	0x3c15dae0	0.009146422
92	0x3bb07ff2	0.005386346
93	0x3b2fede7	0.0026844682
94	0x3be5f521	0.007017747
95	0x3bedd39b	0.0072578914
96	0xbc0bb124	-0.00852612
97	0x3bcc6cc8	0.0062385537
98	0xba213a67	-0.0006150365
99	0xbb0fe7fb	-0.002195834
100	0x3bf6e840	0.0075350106
101	0xbb889714	-0.0041684005
102	0x3a427061	0.00074172585
103	0xbc4c785c	-0.012479868
104	0xbc61661c	-0.013757255
105	0x391373ac	0.00014062104
106	0xbc364bea	-0.011126498
107	0xbbdc6d46	-0.0067268936
108	0x3b92a4ba	0.0044752033
109	0xbbce916a	-0.006303956
110	0x3b6a7572	0.003577557
111	0x3aba88d9	0.0014231458
112	0xbaabc607	-0.0013105281
113	0xbc1256a4	-0.00893179
114	0x3bbcc443	0.005760701
115	0xbc1fe289	-0.0097586
116	0xbaf4024f	-0.0018616411
117	0x3bc37c26	0.0059657274
118	0xbb6b43ec	-0.003589864
119	0xbacd5138	-0.0015664464
120	0x3b9d1f27	0.0047949734
121	0xbbd6da45	-0.0065567815
122	0xbbf77fe1	-0.007553086
123	0xbba61bfc	-0.005069254
124	0x3b9c1901	0.004763723
125	0xbaeb0d20	-0.0017932989
126	0xba57d833	-0.00082338153
127	0x3af2d1e4	0.0018525687
128	0x3bdb2394	0.006687591
129	0x3bdea03e	0.0067940047
130	0xbb10884b	-0.0022053893
131	0x3b013974	0.0019718083
132	0xbb77b7c4	-0.0037798742
133	0xbc05ca47	-0.008165902
134	0xbc04064d	-0.008058143
135	0x3c0c63f5	0.0085687535
136	0xba72062a	-0.0009232486
137	0xbb734ce6	-0.0037124692
138	0xbaca07ae	-0.0015413666
139	0xbc8eeb47	-0.017446173
140	0xbc28b506	-0.010297066
141	0xbc481e25	-0.012214218
142	0xbbdf0cb6	-0.006806935
143	0xba96e320	-0.001151178
144	0xbc3a9bbe	-0.011389671
145	0x3a877809	0.0010335456
146	0x3b160540	0.0022891313
147	0x3a4f8b05	0.0007917139
148	0xbbb71a0d	-0.0055878223
149	0x3b5cb080	0.0033674538
150	0xbb92c69e	-0.0044792434
151	0x3bc504f0	0.0060125515
152	0x3bb3f67e	0.0054920306
153	0xbc02233b	-0.00794297
154	0x3b25e514	0.0025313543
155	0xbb65fefc	-0.003509461
156	0xbc2603d5	-0.01013275
157	0xbbb52800	-0.00552845
158	0xbb8dde85	-0.004329505
159	0xba8f7e5b	-0.0010947691
160	0xbbf6e6ee	-0.007534853
161	0x3ad1afb5	0.0015997799
162	0x3ba6b3f7	0.0050873714
163	0xbc094be7	-0.008379913
164	0xbbef36c4	-0.0073002297
165	0xbb8bf284	-0.0042708535
166	0x3b97d0e2	0.004633055
167	0xbb84d0df	-0.0040532197
168	0xbbbf3c5b	-0.0058360524
169	0x3ba280d9	0.0049592075
170	0xbb8c268f	-0.0042770575
171	0x3a1a5318	0.0005887016
172	0xb8e63e53	-0.000109788634
173	0xbc22b3c5	-0.009930556
174	0xbb28e138	-0.0025769006
175	0xbcb20021	-0.021728577
176	0xbbadf30f	-0.005308516
177	0xbc420e71	-0.011844263
178	0xbc7b98b0	-0.015356228
179	0xbb5ed683	-0.003400237
180	0xbbaee325	-0.0053371363
181	0x3ad299f3	0.0016067609
182	0x3b714e61	0.00368204
183	0xbbc926ae	-0.006138644
184	0xbc481502	-0.01221204
185	0xbb35f360	-0.002776347
186	0xbbbf454d	-0.0058371187
187	0x3b3ccc65	0.0028808352
188	0x3bd9bdb1	0.0066449274
189	0x3a4610ec	0.0007555622
190	0xba7c8d6b	-0.000963411
191	0x3b38d5c1	0.002820358
192	0xbb1aa88c	-0.0023598997
193	0xbbda3738	-0.0066594146
194	0xbc819735	-0.015819171
195	0xbc321922	-0.01087025
196	0xbc64e464	-0.013970468
197	0xbc47b246	-0.0121885
198	0xbbc7c6a2	-0.006096677
199	0xbc580741	-0.013185323
200	0xba367b9f	-0.000696117
201	0xbc223def	-0.009902461
202	0xba6a56d6	-0.0008939331
203	0xbc27c35f	-0.010239451
204	0xbb8eb17f	-0.0043546553
205	0x3bcf4e61	0.006326482
206	0x39177e91	0.00014447632
207	0xbc046106	-0.008079773
208	0x38dc341b	0.00010500123
209	0xbc22d35d	-0.009938088
210	0x3a8e5bda	0.0010861114
211	0x3b481f33	0.0030536174
212	0x3bbc5f4b	0.0057486645
213	0xbc94215e	-0.018082317
214	0x3b107034	0.0022039535
215	0xbcaa7535	-0.020807842
216	0xbb92b8de	-0.0044776043
217	0xbc3fd65b	-0.011708821
218	0xbc568fb4	-0.013095785
219	0x3b64610f	0.003484789
220	0x38eb9321	0.00011233078
221	0xbc0f9b43	-0.008765045
222	0xbc3419ed	-0.010992509
223	0xbc17499a	-0.009233857
224	0xbc0244db	-0.007950987
225	0x3bd9c512	0.006645807
226	0xbbdfb060	-0.0068264455
227	0x3aa3a629	0.0012485433
228	0xba3b7d89	-0.000715219
229	0xb926bb90	-0.00015900866
230	0x3be1871d	0.006882562
231	0x3a173e55	0.0005769481
232	0xbc90bb70	-0.017667502
233	0xbceee110	-0.029160053
234	0xbc4469c3	-0.011988106
235	0x3b2da653	0.0026496842
236	0xbab5f967	-0.0013883532
237	0xbb26977a	-0.0025419877
238	0xbc5814aa	-0.01318852
239	0x3b80fef4	0.003936643
240	0x3acf10f4	0.0015797899
241	0x3bbc8c99	0.0057540652
242	0x3bf08d2c	0.0073410477
243	0xbbb05443	-0.0053811385
244	0xbc10ce2b	-0.008838217
245	0x3ac6e1eb	0.001517353
246	0xbc2275de	-0.009915797
247	0xbc1b54f4	-0.009480704
248	0xbb1623fb	-0.002290963
249	0xbbde232d	-0.0067790956
250	0x3bed8d66	0.007249522
251	0xbc23425e	-0.009964554
252	0xbc5d1050	-0.013492659
253	0xbc4d932c	-0.012547296
254	0xbbaa626c	-0.005199721
255	0x39a7cbc9	0.00032004554

bias f4 [10]
0	0xbf2f1f26	-0.68406904
1	0xbf34f79a	-0.7069031
2	0xbf4e3fad	-0.8056591
3	0xbf5be7c8	-0.85900545
4	0xbf5d0ec5	-0.8635066
5	0xbf5a8358	-0.85356665
6	0xbf6498fc	-0.89295936
7	0xbf63dca7	-0.89008564
8	0xbf65c5ae	-0.8975476
9	0xbf5977d8	-0.8494849
