experiments/linear_probe/epoch2.ckpt (torch, 463423 bytes, 2 tensors)

weight f4 [10, 11552]
000000 c4 89 c4 bb b3 34 0a 3c ea f9 31 3b 0a e0 ae 3a
       -0.0059978683 0.008435416 0.0027157017 0.0013341915
000010 be b6 d7 3b a0 fe 98 3b e1 e9 87 3a 01 66 03 bc
       0.006583064 0.0046690255 0.0010369384 -0.008019925
000020 3b 5c 19 bc 17 27 1b bc 8d a3 f0 bb 9f 81 4c ba
       -0.009360368 -0.009469769 -0.0073437155 -0.00078012975
000030 f0 fc 36 bb 8c b1 a6 3a 9c 56 f2 3b 83 fd 9e 3b
       -0.0027921759 0.0012717708 0.0073955785 0.0048519983
000040 ea 29 85 ba 53 a1 51 3b 54 fe c9 3b cf 64 d2 bb
       -0.0010159586 0.0031987026 0.0061643515 -0.0064207087
000050 38 4b 9e 3b 96 dd 9b ba 18 77 a7 bb ea d1 43 bb
       0.004830744 -0.0011891599 -0.0051106326 -0.0029879757
000060 a7 25 3c bc c8 06 97 3b cf 6c 81 3b 54 a0 99 3b
       -0.011483586 0.0046089627 0.0039497386 0.004688302
000070 2d fa 41 3b df a3 f9 bb 22 33 dd 3b 4e 6a f8 3b
       0.002959858 -0.007618412 0.0067504803 0.007581032
000080 f0 cd 61 bb cd 71 b6 ba f5 7e a8 3a 49 da 2d bb
       -0.0034455024 -0.0013919413 0.0012855219 -0.0026527813
000090 c6 e7 de bb 50 26 0f 3b 2a cc df 3b 0e f3 f4 ba
       -0.006802532 0.0021842904 0.006829758 -0.0018688159
0000a0 d9 15 09 bc 58 83 1d bc 8f 4d 18 3b ea b5 1d 3a
       -0.008367025 -0.009613834 0.0023239588 0.0006016182
0000b0 af b4 3b ba cd be 29 3b c5 3a 28 3b 3e e0 61 bb
       -0.0007160408 0.002590108 0.0025669795 -0.0034465934
0000c0 6a 90 c0 b9 e7 4e 44 3b c4 08 42 bb 50 c5 81 3b
       -0.0003672869 0.0029954256 -0.0029607276 0.003960289
0000d0 a8 e6 c3 bb b8 d8 99 3b a1 77 09 3b 4b f4 37 bb
       -0.005978424 0.0046950243 0.0020975845 -0.0028069194
0000e0 61 9a 6a bb ab ea 29 3b fb f0 2d 3a 1d 8e c1 bb
       -0.0035797583 0.0025927227 0.0006635335 -0.005906834
0000f0 97 1f 3c 3b 44 0b 4b 3b 9e 57 c7 3a 06 81 a7 3b
       0.0028705352 0.0030982057 0.0015208607 0.0051118163
000100 b5 37 40 bc ad 94 08 bc 4d aa b0 ba 5c a3 ad bc
       -0.011732032 -0.008336228 -0.0013478488 -0.02119606
000110 e8 3d c1 3b 65 4b 84 3b c9 48 a2 3b c8 53 b9 b9
       0.0058972724 0.004037308 0.0049525243 -0.00035348372
000120 2e 43 cf 3b 17 a3 c5 3b 0f ef 1b 3b 02 1a cd bb
       0.006325147 0.0060314047 0.0023793613 -0.006259204
000130 f0 df 49 bb 8e 3f e5 bb 96 80 c6 bb 56 cc af 3b
       -0.0030803643 -0.0069961017 -0.006057809 0.005364935
000140 3b 0a 98 3b fc b2 c3 bb 75 32 36 bb 22 39 1b bc
       0.0046398914 -0.0059722643 -0.002780107 -0.009474071
000150 59 77 3f bc e6 3e 5f bc 0a 82 ef bb 01 5c b1 ba
       -0.01168617 -0.013625836 -0.007309203 -0.0013531448
000160 1a 40 46 bb 74 08 43 bc ad 66 63 bb e6 02 16 3c
       -0.003025061 -0.011903871 -0.003469865 0.0091559645
000170 3a 52 b0 3b 45 97 2f 3b 64 65 e5 3b f9 fe f0 3b
       0.005380896 0.0026793045 0.007000612 0.007354614
000180 cb 7d 0b bc 6f 24 cd 3b 65 4c 0b ba d5 1e 00 bb
       -0.008513878 0.0062604467 -0.0005313813 -0.0019549627
000190 a4 ce f8 3b b9 99 3e bb 61 2c d3 3a bb 30 3a bc
       0.007592993 -0.0029083325 0.0016111248 -0.011364157
0001a0 1a 2c 3f bc 11 fe 09 3b 01 85 24 bc 94 02 d7 bb
       -0.0116682295 0.0021055976 -0.010041476 -0.0065615866
0001b0 bb 17 93 3b a4 53 ce bb 82 53 6c 3b 51 34 c0 3a
       0.004488913 -0.006296592 0.0036060517 0.0014664029
0001c0 e7 39 ae ba ee db 11 bc cb 47 c0 3b e6 16 1f bc
       -0.0013292403 -0.008902533 0.0058679334 -0.009710049
0001d0 25 31 00 bb 6b 3b c8 3b 33 aa 50 bb 51 e4 b7 ba
       -0.0019560542 0.006110599 -0.0031839728 -0.0014029836
0001e0 65 e3 a8 3b bc 27 ca bb 39 dc d8 bb 54 b2 7f bb
       0.0051540607 -0.0061692875 -0.0066180495 -0.0039016204
0001f0 48 cc ab 3b 03 5a ba ba d9 d2 3c ba 7c 4f fb 3a
       0.005242858 -0.0014217499 -0.00072030496 0.0019173468
000200 a5 92 de 3b 9f 53 e0 3b 42 13 08 bb 29 6c 07 3b
       0.0067923837 0.006845906 -0.0020763432 0.0020663834
000210 45 9b 77 bb 11 6d 02 bc 88 64 05 bc 72 22 0d 3c
       -0.0037781757 -0.007960574 -0.008141644 0.008614169
000220 df 09 2b ba 10 8d 2d ba 3f a7 6c ba 0c c8 67 bc
       -0.0006524603 -0.0006620446 -0.0009027607 -0.014146816
000230 44 f4 16 bc 36 cd 2f bc cd c7 85 bb 39 59 b7 39
       -0.009213511 -0.010730078 -0.004082656 0.00034970956
000240 03 6f 11 bc 16 bd 39 3b 1e b2 28 3b 3a f0 94 3a
       -0.008876565 0.0028341464 0.0025740932 0.0011363097
000250 53 9a b3 bb e2 d4 67 3b bf bf 90 bb b4 b1 c6 3b
       -0.0054810434 0.003537469 -0.004417389 0.0060636643
000260 f4 77 b9 3b 55 0d 02 bc 56 23 2c 3b 34 6f fd ba
       0.0056600515 -0.007937749 0.002626618 -0.0019335509
000270 0c a9 e8 bb 66 07 5f bb 13 81 c1 ba c5 1e 24 b9
       -0.00710023 -0.003403151 -0.0014763199 -0.00015651721
000280 98 4d df bb 4e 7f 18 3b db 8e b5 3b cd 68 f4 bb
       -0.00681467 0.002326924 0.0055407113 -0.0074587823
000290 91 ba d7 bb 77 09 81 bb 6a 26 a8 3b dd 1a 7a bb
       -0.0065835197 -0.003937896 0.0051315324 -0.0038162984
0002a0 7e 24 b8 bb 9a 95 a4 3b de a9 82 bb 55 b9 1a 3b
       -0.0056195846 0.0050227167 -0.003987535 0.0023609002
0002b0 88 4b 68 39 9c 1b 0d bc 3f 4e cd 38 7c ee 8a bc
       0.00022153382 -0.00861254 9.789736e-05 -0.016959421
0002c0 43 34 2f bb fd 83 00 bc 4a 22 52 bc 63 f0 09 bb
       -0.0026734031 -0.007843968 -0.012825558 -0.0021047823
0002d0 32 c7 8d bb 06 48 0f 3b 7f e3 a5 3b a4 d9 89 bb
       -0.0043267244 0.0021862998 0.00506252 -0.004206853
0002e0 8c 3b 2e bc a4 18 f9 ba 9f f4 a7 bb e9 ae 4e 3b
       -0.010634314 -0.0019004536 -0.0051255967 0.003153736
0002f0 3b a1 dd 3b cd 47 81 3a 9f c5 1c 39 6b 7a 5d 3b
       0.006763605 0.0009863317 0.00014950939 0.003379489
000300 18 52 0b bb 88 6e 9d bb a6 82 62 bc be 30 21 bc
       -0.0021258648 -0.004804436 -0.013825094 -0.009838281
000310 84 1d 3d bc 27 eb 04 bc f0 94 96 bb 5a 36 45 bc
       -0.011542682 -0.008112705 -0.0045953915 -0.012036884
000320 2f 37 15 38 14 00 15 bc 80 43 ce b8 1a 0a 16 bc
       3.5575762e-05 -0.009094257 -9.835418e-05 -0.009157682
000330 99 5f 69 bb 29 97 e5 3b a1 01 ab 39 8d 6e 02 bc
       -0.003560996 0.007006545 0.00032616875 -0.007960928
000340 37 a2 df 39 09 39 15 bc 9b 6a 1f 3b 2a 9d 49 3b
       0.00042654734 -0.0091078365 0.0024325016 0.0030763843
000350 3d 7e d3 3b 1d 6f 7b bc 50 24 59 3b 3d cf 8e bc
       0.0064542578 -0.015346316 0.0033133216 -0.017432803
000360 37 3f 0c bb 46 a9 34 bc 0b 20 3b bc cf 3b 90 3b
       -0.0021399984 -0.011026686 -0.011421214 0.004401661
000370 b3 d7 2d 3a 68 97 01 bc 7c 79 29 bc 72 6c 05 bc
       0.0006631568 -0.007909633 -0.010343906 -0.008143531
000380 3b 70 f0 bb ed 5b dc 3b 72 8d d9 bb 5a 73 b9 3a
       -0.0073375977 0.0067248256 -0.006639176 0.0014148757
000390 7c a2 fe b9 52 91 b1 39 84 18 e5 3b ef 82 dd 3a
       -0.00048567716 0.00033868343 0.006991448 0.0016899983
0003a0 6a 99 3c bc 6e 65 b5 bc 73 ea 17 bc 49 ad 53 3b
       -0.011511186 -0.022143092 -0.009272206 0.003229933
0003b0 de 84 f1 b9 db 26 5d ba ca 4c 4a bc d2 99 90 3b
       -0.00046066096 -0.0008436271 -0.0123474095 0.004412868
0003c0 7a 35 2a 3b ea 0f d3 3b 03 7b fb 3b 4b a7 8c bb
       0.0025971816 0.006441106 0.0076745762 -0.004292404
0003d0 89 3e fb bb 6b 57 11 3b 52 69 1b bc a8 95 15 bc
       -0.007667367 0.002217735 -0.00948556 -0.009129919
0003e0 3f d3 df ba 56 86 dd bb ad 80 f0 3b 71 ef ca bb
       -0.0017076506 -0.006760399 0.007339558 -0.0061930944
0003f0 4f b1 0a bc 70 c1 3d bc fd fb 9f bb 95 68 80 3a
       -0.008465125 -0.011581764 -0.0048823343 0.0009796793

bias f4 [10]
000000 5d 15 25 bf 7c 33 29 bf 52 9b 3d bf 69 89 47 bf
       -0.6448572 -0.66094184 -0.74065125 -0.77944046
000010 d7 90 48 bf a1 79 45 bf 14 f1 4c bf a9 b7 4c bf
       -0.7834601 -0.77138716 -0.80055356 -0.79967743
000020 89 90 4e bf 33 ee 44 bf
       -0.80689293 -0.76925963
