experiments/linear_probe/epoch3.ckpt (torch, 463423 bytes, 2 tensors)

weight f4 [10, 11552]
0	0xbbc5fdfc	-0.00604224
1	0x3c097598	0.008389853
2	0x3b2f3eae	0.002674024
3	0x3a8c90d1	0.0010724311
4	0x3bd43b95	0.0064768293
5	0x3b96071b	0.0045784838
6	0x3a6754ff	0.0008824616
7	0xbc0387d4	-0.008027989
8	0xbc1a215b	-0.009407367
9	0xbc1cf2f9	-0.009579414
10	0xbbf0d265	-0.0073492997
11	0xba4dcc90	-0.00078506116
12	0xbb35f3fb	-0.0027763832
13	0x3aa1cb28	0.001234387
14	0x3bf0c47f	0.007347643
15	0x3b9cb0ed	0.0047818334
16	0xba8e9031	-0.0010876713
17	0x3b462daa	0.003023962
18	0x3bc4991b	0.005999697
19	0xbbd14de2	-0.006387458
20	0x3b9ea791	0.004841753
21	0xba9a9e9c	-0.0011796537
22	0xbbb41caa	-0.005496581
23	0xbb8527b8	-0.0040635727
24	0xbc404e0e	-0.01173736
25	0x3b950a73	0.004548365
26	0x3b7fe47c	0.00390461
27	0x3b97ced6	0.004632811
28	0x3b402717	0.0029320174
29	0xbbfd2e61	-0.007726476
30	0x3bdbbea3	0.0067060753
31	0x3bf93a8b	0.007605856
32	0xbb61ca12	-0.0034452719
33	0xbaa9d69c	-0.0012957635
34	0x3aa69274	0.0012708441
35	0xbb2de827	-0.0026536079
36	0xbbe14e3d	-0.006875782
37	0x3b067584	0.0020516822
38	0x3bdfc284	0.006828608
39	0xbaf95d4e	-0.0019024999
40	0xbc0a01d8	-0.008423291
41	0xbc1f2993	-0.009714502
42	0x3b0e03fe	0.002166986
43	0x3a1b8236	0.00059321837
44	0xba3b7644	-0.0007151107
45	0x3b2285e3	0.002479904
46	0x3b22b378	0.002482621
47	0xbb64953f	-0.0034878997
48	0xba74e9a7	-0.0009342678
49	0x3b356ffc	0.0027685156
50	0xbb432153	-0.0029774501
51	0x3b823778	0.0039738975
52	0xbbc52bb0	-0.006017171
53	0x3b9a1f22	0.0047034184
54	0x3b09340a	0.0020935559
55	0xbb3ade33	-0.0028513789
56	0xbb6c8c2c	-0.003609429
57	0x3b26eceb	0.0025470804
58	0x3a2d7f28	0.0006618374
59	0xbbc20c7f	-0.0059219
60	0x3b3630c1	0.0027800056
61	0x3b4584ea	0.0030139037
62	0x3ac3c34a	0.001493552
63	0x3ba5e708	0.0050629415
64	0xbc4852e5	-0.012226795
65	0xbc116124	-0.008873258
66	0xbb37a5af	-0.002802234
67	0xbcc0b5d9	-0.023524212
68	0x3bb168fb	0.005414126
69	0x3b7a3c57	0.0038182938
70	0x3ba1d843	0.0049391105
71	0xb9caa5bd	-0.00038651927
72	0x3bceb5c4	0.0063082892
73	0x3bc553fb	0.006021974
74	0x3b1a8279	0.0023576303
75	0xbbce859a	-0.0063025476
76	0xbb4ab5dc	-0.003093115
77	0xbbe59075	-0.007005746
78	0xbbc69b00	-0.006060958
79	0x3bae8a5d	0.005326553
80	0x3b9405dd	0.0045173005
81	0xbbc4bd7c	-0.0060040336
82	0xbb3f1afa	-0.0029160366
83	0xbc1fa040	-0.009742796
84	0xbc4b0867	-0.01239214
85	0xbc7aee6c	-0.015315633
86	0xbc2147ae	-0.00984375
87	0xbaf9db42	-0.0019062536
88	0xbb5c0fef	-0.0033578833
89	0xbc4a41bb	-0.012344773
90	0xbb6493c4	-0.0034878114
91	0x3c15ec6d	0.009150607
92	0x3bb0600d	0.005382544
93	0x3b2fb72a	0.0026812055
94	0x3be59bda	0.0070071043
95	0x3bef4769	0.007302214
96	0xbc0ba6d1	-0.008523659
97	0x3bccb7a3	0.006247477
98	0xba171b67	-0.0005764276
99	0xbb08d1b3	-0.0020876944
100	0x3bf7bbc0	0.0075602233
101	0xbb69a51f	-0.0035651398
102	0x3a97d1de	0.0011582931
103	0xbc43b60f	-0.011945262
104	0xbc50fe65	-0.012755965
105	0x3a8d301f	0.0010771787
106	0xbc2dcc46	-0.010607785
107	0xbbd9dcb7	-0.0066486257
108	0x3b92d150	0.0044805184
109	0xbbce7cc8	-0.006301496
110	0x3b6b54a3	0.0035908602
111	0x3abd285c	0.0014431584
112	0xbaad47ba	-0.0013220229
113	0xbc1224b9	-0.008919888
114	0x3bbe6922	0.0058108727
115	0xbc1f8b64	-0.009737823
116	0xbafa6ae8	-0.0019105347
117	0x3bc5a72e	0.0060318923
118	0xbb5edd51	-0.0034006427
119	0xbac3751a	-0.0014912218
120	0x3ba2b858	0.004965823
121	0xbbd0d3e5	-0.006372916
122	0xbbe8e693	-0.0071075647
123	0xbb93d6c0	-0.004511684
124	0x3ba3605a	0.0049858512
125	0xbad5191f	-0.0016258097
126	0xba4ad5ea	-0.0007737564
127	0x3af6ec8b	0.0018838806
128	0x3bdccd7b	0.0067383624
129	0x3bdf701b	0.006818784
130	0xbb0ceb6b	-0.0021502625
131	0x3b03d268	0.0020114426
132	0xbb77efd2	-0.0037832153
133	0xbc042ef8	-0.008067839
134	0xbc04c522	-0.008103641
135	0x3c0cb913	0.008589047
136	0xba5016f2	-0.00079379894
137	0xbb144df7	-0.0022629478
138	0xbaa247fa	-0.001238107
139	0xbc820a8e	-0.015874173
140	0xbc2039cd	-0.009779406
141	0xbc3c72d4	-0.0115019865
142	0xbbb4a61f	-0.0055129672
143	0xb9e99bb3	-0.00044557228
144	0xbc273516	-0.010205528
145	0x3af87454	0.0018955567
146	0x3b1f0780	0.0024265945
147	0x3a7ae8e6	0.0009571448
148	0xbbb56c41	-0.0055365865
149	0x3b61ee30	0.0034474246
150	0xbb91e447	-0.0044522616
151	0x3bc5a44c	0.0060315486
152	0x3bb67b9d	0.005568935
153	0xbc02278e	-0.007944001
154	0x3b28dc48	0.0025766063
155	0xbb34e035	-0.0027599458
156	0xbc0e78d7	-0.008695803
157	0xbb942c5d	-0.00452189
158	0xbb42fb5f	-0.002975188
159	0xba2986f4	-0.0006466948
160	0xbbeb99f5	-0.007189984
161	0x3afec871	0.0019438398
162	0x3badb3dc	0.005300982
163	0xbc0245e1	-0.007951231
164	0xbbe44193	-0.006965825
165	0xbb86cfdc	-0.0041141342
166	0x3b9fa5fb	0.0048720813
167	0xbb8120f8	-0.0039406978
168	0xbbbbd327	-0.0057319584
169	0x3ba371bc	0.0049879234
170	0xbb87aa9f	-0.0041402127
171	0x3ab9cbb9	0.0014175094
172	0x38472604	4.7480702e-05
173	0xbc18572d	-0.009298128
174	0xbaaaa3fc	-0.0013018842
175	0xbc9f89ad	-0.019474829
176	0xbb851375	-0.0040611573
177	0xbc230ac5	-0.009951298
178	0xbc67fa63	-0.014158818
179	0xbb369f5f	-0.0027865989
180	0xbb9f3db0	-0.0048596486
181	0x3af670a7	0.0018801884
182	0x3b8e4d4c	0.0043427106
183	0xbbaafc0b	-0.005218034
184	0xbc3beac2	-0.011469545
185	0xbb1ac990	-0.0023618676
186	0xbbb40c05	-0.005494597
187	0x3b4548ff	0.0030103324
188	0x3bdb89fb	0.006699798
189	0x3a6218c6	0.00086249074
190	0xb9e87953	-0.00044340882
191	0x3b4a28aa	0.0030846992
192	0xbb1357c5	-0.0022482735
193	0xbbbd4c41	-0.0057769124
194	0xbc739df5	-0.014869203
195	0xbc2a03cc	-0.010376882
196	0xbc51f723	-0.01281527
197	0xbc284901	-0.010271312
198	0xbbb0840c	-0.005386835
199	0xbc4f1f6a	-0.012641767
200	0xb9b52030	-0.00034546992
201	0xbc1beb83	-0.0095166
202	0xba073331	-0.00051574694
203	0xbc1f772f	-0.009733005
204	0xbb8259fe	-0.003978013
205	0x3bd9fcb5	0.0066524395
206	0x397256fd	0.00023111324
207	0xbc037bd4	-0.008025128
208	0x3984952c	0.00025288144
209	0xbc1c8208	-0.009552486
210	0x3ae11a34	0.0017173947
211	0x3b48d0c6	0.0030642017
212	0x3bc76a02	0.006085635
213	0xbc8973ee	-0.016778912
214	0x3b33275c	0.0027336692
215	0xbc9d6d4c	-0.019217156
216	0xbb5ca5be	-0.0033668126
217	0xbc3a8249	-0.011383601
218	0xbc4961be	-0.01229137
219	0x3b808539	0.0039221314
220	0x39c24313	0.00037052538
221	0xbc08e6ff	-0.008355855
222	0xbc2f1942	-0.010687174
223	0xbc0ebb42	-0.008711638
224	0xbbfaf844	-0.00765899
225	0x3bdae584	0.0066801924
226	0xbbdcedf3	-0.006742233
227	0x3aada506	0.0013248033
228	0xba1fae80	-0.0006091371
229	0x389e6f58	7.5547665e-05
230	0x3be33cb8	0.0069347285
231	0x3a90ad69	0.0011038008
232	0xbc72143b	-0.014775331
233	0xbcd3f2e6	-0.025872659
234	0xbc2f61e8	-0.010704495
235	0x3b3fcfbb	0.0029268104
236	0xba77902e	-0.00094437867
237	0xbae1f3f2	-0.0017238839
238	0xbc51a4f3	-0.012795675
239	0x3b87fcb1	0.004149996
240	0x3b0780bd	0.00206761
241	0x3bc74739	0.0060814884
242	0x3bf5bacd	0.007499075
243	0xbb9f61f5	-0.0048639723
244	0xbc07b592	-0.008283036
245	0x3af25fbf	0.0018491669
246	0xbc1f1bc5	-0.009711211
247	0xbc18a20c	-0.009315979
248	0xbb041664	-0.0020154947
249	0xbbdddc38	-0.006770637
250	0x3beef08e	0.00729186
251	0xbc05f350	-0.008175686
252	0xbc36462b	-0.011125128
253	0xbc460c73	-0.012087929
254	0xbba58892	-0.005051681
255	0x3a270af6	0.0006372178

bias f4 [10]
0	0xbf2b6969	-0.6695772
1	0xbf306b88	-0.6891408
2	0xbf47ab58	-0.77995825
3	0xbf53c56d	-0.8272312
4	0xbf54e418	-0.83160543
5	0xbf520427	-0.82037586
6	0xbf5ae302	-0.85502636
7	0xbf5a7613	-0.85336417
8	0xbf5c4ef8	-0.86057997
9	0xbf513406	-0.81720006
