experiments/linear_probe/epoch5.ckpt (torch, 463423 bytes, 2 tensors)

weight f4 [10, 11552]
0	0xbbc7bd5b	-0.006095571
1	0x3c087d1b	0.008330609
2	0x3b2adcdc	0.0026071584
3	0x3a255a45	0.00063077017
4	0x3bcf7137	0.006330635
5	0x3b91919a	0.004442406
6	0x3a1fee8c	0.0006100915
7	0xbc036c3c	-0.008021411
8	0xbc1b4f02	-0.009479286
9	0xbc1fc8c5	-0.009752457
10	0xbbf07dc3	-0.0073392107
11	0xba4a9011	-0.0007727156
12	0xbb32a8fa	-0.0027261362
13	0x3a9d6696	0.0012008722
14	0x3bef05b4	0.007294381
15	0x3b99c499	0.0046926257
16	0xba9edb27	-0.0012119756
17	0x3b33084d	0.002731818
18	0x3bbb7af8	0.005721446
19	0xbbce42a8	-0.006294567
20	0x3ba066eb	0.0048950813
21	0xba969f9e	-0.0011491661
22	0xbbc849a7	-0.0061122957
23	0xbbbcfc3e	-0.0057673743
24	0xbc46e771	-0.012140141
25	0x3b920923	0.0044566556
26	0x3b7b8e5d	0.0038384416
27	0x3b94b1d0	0.0045377985
28	0x3b3ddcb4	0.002897066
29	0xbc0037bd	-0.007825789
30	0x3bda1a06	0.0066559343
31	0x3bfb1847	0.007662806
32	0xbb606948	-0.003424244
33	0xba8d7308	-0.0010791728
34	0x3aa64179	0.0012684307
35	0xbb2cc6f2	-0.0026363698
36	0xbbe4bb8d	-0.0069803656
37	0x3af07486	0.0018345274
38	0x3be01827	0.0068388167
39	0xbafdf833	-0.0019376337
40	0xbc0b6ce1	-0.0085098455
41	0xbc21f33f	-0.009884655
42	0x3af92d3d	0.0019010674
43	0x3a1ab88e	0.00059021346
44	0xba38ebae	-0.0007054162
45	0x3b16bb9a	0.0023000003
46	0x3b198eca	0.0023431056
47	0xbb681cb5	-0.0035417501
48	0xbaf60fce	-0.0018773021
49	0x3b1c5be9	0.0023858494
50	0xbb44ebb4	-0.0030047717
51	0x3b833026	0.0040035425
52	0xbbc67107	-0.0060559544
53	0x3b9ad039	0.004724529
54	0x3b0950ad	0.0020952628
55	0xbb3ff681	-0.0029291215
56	0xbb6fa768	-0.0036568288
57	0x3b21a66c	0.0024665846
58	0x3a2fede2	0.00067111675
59	0xbbc2eb7f	-0.0059484835
60	0x3b2b7093	0.0026159629
61	0x3b3bfbc3	0.0028683997
62	0x3abdbb41	0.0014475362
63	0x3ba3525e	0.004984184
64	0xbc5554ca	-0.013020704
65	0xbc2028b3	-0.009775328
66	0xbbab41d5	-0.0052263536
67	0xbce08777	-0.027408345
68	0x3b962b1b	0.0045827753
69	0x3b619a03	0.0034424074
70	0x3ba141f0	0.0049211904
71	0xb9e8519e	-0.00044311298
72	0x3bcdb96a	0.0062782066
73	0x3bc4f387	0.006010476
74	0x3b183834	0.002322686
75	0xbbcff2d1	-0.0063460846
76	0xbb4b6536	-0.0031035668
77	0xbbe5ae56	-0.007009308
78	0xbbc6b6ce	-0.0060642725
79	0x3bac6445	0.0052609765
80	0x3b8d0f0a	0.0043047713
81	0xbbc69661	-0.006060407
82	0xbb4efb9c	-0.0031583076
83	0xbc275be2	-0.010214778
84	0xbc5f6ca1	-0.013636739
85	0xbc956e28	-0.018241003
86	0xbc67f4c8	-0.0141574815
87	0xbb3bdb2e	-0.0028664577
88	0xbb80edbe	-0.003934591
89	0xbc56161a	-0.013066793
90	0xbb665fc3	-0.0035152293
91	0x3c15cba5	0.009142791
92	0x3bb0a7db	0.0053911037
93	0x3b302d2c	0.0026882393
94	0x3be65abb	0.007029859
95	0x3bec7675	0.0072162696
96	0xbc0bb250	-0.0085264
97	0x3bcc312a	0.0062314468
98	0xba2a77dc	-0.0006502846
99	0xbb161323	-0.002289959
100	0x3bf638b0	0.007514082
101	0xbb9b1800	-0.0047330856
102	0x39b75bcf	0.00034972883
103	0xbc54b36a	-0.012982229
104	0xbc70c8ef	-0.014696344
105	0xba3f2daa	-0.0007292876
106	0xbc3e3a26	-0.011610543
107	0xbbdec9d7	-0.0067989635
108	0x3b928670	0.0044715926
109	0xbbce9bf6	-0.006305213
110	0x3b69a143	0.0035649098
111	0x3ab81ac5	0.0014046064
112	0xbaaa0408	-0.0012971172
113	0xbc12808d	-0.008941782
114	0x3bbb3132	0.0057126516
115	0xbc2030a7	-0.009777225
116	0xbaed6b69	-0.0018113676
117	0x3bc1879a	0.0059060575
118	0xbb769d25	-0.0037630287
119	0xbad62e51	-0.0016340708
120	0x3b97ebef	0.00463628
121	0xbbdc72bb	-0.006727544
122	0xbc029117	-0.007969162
123	0xbbb73504	-0.0055910368
124	0x3b958fb9	0.004564252
125	0xbafe0863	-0.0019381162
126	0xba6441d8	-0.0008707321
127	0x3aeee2a8	0.0018225508
128	0x3bd98755	0.0066384473
129	0x3bddd9dd	0.006770356
130	0xbb13847d	-0.002250939
131	0x3afe4c20	0.0019401349
132	0xbb774b3d	-0.0037734054
133	0xbc0755b0	-0.008260176
134	0xbc033dd3	-0.0080103455
135	0x3c0c1a0e	0.008551134
136	0xba88f5e7	-0.0010449261
137	0xbba5ac80	-0.005055964
138	0xbaef043d	-0.0018235516
139	0xbc9adf41	-0.018905284
140	0xbc30add2	-0.0107836295
141	0xbc531faf	-0.012885972
142	0xbc034bc7	-0.008013672
143	0xbaec22f7	-0.0018015791
144	0xbc4c7c7e	-0.012480853
145	0x396d8890	0.00022652955
146	0x3b0d7135	0.002158237
147	0x3a264000	0.0006341934
148	0xbbb8b4dd	-0.005636795
149	0x3b57cb40	0.0032927543
150	0xbb938a18	-0.004502546
151	0x3bc4982d	0.005999586
152	0x3bb1a887	0.0054217014
153	0xbc021332	-0.007939147
154	0x3b231dc9	0.002488958
155	0xbb89c415	-0.004204283
156	0xbc3bb33e	-0.011456309
157	0xbbd3718b	-0.0064527444
158	0xbbb6dfff	-0.0055809016
159	0xbac6af48	-0.0015158439
160	0xbc00ca62	-0.007860752
161	0x3aa7a706	0.0012790866
162	0x3ba034af	0.004889093
163	0xbc0faa40	-0.008768618
164	0xbbf928f5	-0.0076037594
165	0xbb90afdd	-0.004415496
166	0x3b90702b	0.0044079027
167	0xbb883edd	-0.0041578845
168	0xbbc27b8f	-0.0059351395
169	0x3ba1aa1b	0.004933608
170	0xbb905c38	-0.0044055246
171	0xb93785ea	-0.00017502127
172	0xb9884a53	-0.00025995317
173	0xbc2c81c5	-0.010528986
174	0xbb76ade3	-0.0037640266
175	0xbcc2f5c7	-0.023798836
176	0xbbd3821b	-0.0064547188
177	0xbc5e970d	-0.013585818
178	0xbc86d6e0	-0.016459882
179	0xbb820ef5	-0.003969068
180	0xbbbd5cdf	-0.0057788934
181	0x3ab194df	0.0013548395
182	0x3b48a41b	0.0030615393
183	0xbbe5468c	-0.0069969352
184	0xbc53419b	-0.0128940595
185	0xbb4f296b	-0.003161038
186	0xbbc9e76c	-0.006161621
187	0x3b34e1f7	0.0027600506
188	0x3bd81e2c	0.0065953936
189	0x3a2c8660	0.0006581303
190	0xbabd3372	-0.0014434888
191	0x3b2888ed	0.002571638
192	0xbb2181f5	-0.002464411
193	0xbbf515b8	-0.0074793957
194	0xbc88da89	-0.016705768
195	0xbc39ad3e	-0.011332808
196	0xbc76740e	-0.015042318
197	0xbc6458c2	-0.013937177
198	0xbbdd3cce	-0.0067516332
199	0xbc604643	-0.013688627
200	0xba8675e0	-0.0010258518
201	0xbc2829d9	-0.0102638835
202	0xbaa31ba5	-0.0012444152
203	0xbc2f5607	-0.010701663
204	0xbb9a3728	-0.004706282
205	0x3bc53848	0.006018672
206	0x3883ff90	6.294169e-05
207	0xbc05301e	-0.008129148
208	0xb7f2015a	-2.8849277e-05
209	0xbc2891de	-0.010288684
210	0x3a0573fa	0.0005090829
211	0x3b477961	0.0030437338
212	0x3bb2036b	0.0054325364
213	0xbc9e113e	-0.019295331
214	0x3adfe71d	0.0017082427
215	0xbcb65bde	-0.022260603
216	0xbbb47b90	-0.005507894
217	0xbc44d02c	-0.012012523
218	0xbc62fe33	-0.013854551
219	0x3b49ac69	0.003077293
220	0xb9017241	-0.00012344962
221	0xbc15df2a	-0.009147445
222	0xbc38aba8	-0.011271395
223	0xbc1f56fc	-0.009725329
224	0xbc06be22	-0.008224042
225	0x3bd8d301	0.0066169505
226	0xbbe21c5b	-0.006900353
227	0x3a9a8ce1	0.0011791253
228	0xba553060	-0.00081325136
229	0xb9c5ae4f	-0.00037704638
230	0x3bdfe650	0.0068328753
231	0x38be2c4c	9.068157e-05
232	0xbca65a85	-0.020306835
233	0xbd03a8c4	-0.03214337
234	0xbc57ac81	-0.013163687
235	0x3b1ca638	0.0023902785
236	0xbaecbb3c	-0.0018061171
237	0xbb596d83	-0.0033176846
238	0xbc5df38d	-0.013546837
239	0x3b75fd22	0.0037534912
240	0x3a92d938	0.0011203652
241	0x3bb280cd	0.005447483
242	0x3bebb9dc	0.007193787
243	0xbbc00ee1	-0.0058611487
244	0xbc193a88	-0.009352334
245	0x3a9e64ae	0.0012084448
246	0xbc259c60	-0.0101080835
247	0xbc1dd872	-0.009634124
248	0xbb271432	-0.0025494215
249	0xbbde6474	-0.0067868773
250	0x3bec46ce	0.007210589
251	0xbc3e7006	-0.011623388
252	0xbc80476d	-0.015659058
253	0xbc5499b6	-0.012976101
254	0xbbaed21c	-0.0053351056
255	0x37a5dc2a	1.9772055e-05

bias f4 [10]
0	0xbf31cda2	-0.69454396
1	0xbf383ce8	-0.71967936
2	0xbf52e793	-0.82384604
3	0xbf61ac7e	-0.8815383
4	0xbf62c132	-0.8857604
5	0xbf60b4e4	-0.8777602
6	0xbf6ba80d	-0.920533
7	0xbf6a909d	-0.9162691
8	0xbf6c9a4c	-0.9242294
9	0xbf5f6f0c	-0.8727882
