experiments/linear_probe/epoch9.ckpt (torch, 463423 bytes, 2 tensors)

weight f4 [10, 11552]
00000000: 55ed c9bb 5214 073c ebf7 223b bcdb fcb8
00000010: e9fa c83b d94e 8a3b 0050 fa38 7ab4 02bc
00000020: d24f 1dbc 3f97 24bc 9226 efbb 1483 3dba
00000030: b80f 2bbb e063 9b3a a2c8 ec3b 0c23 963b
00000040: 6c5b bdba 179b 113b 340e ab3b bd51 c7bb
00000050: c1de a43b 92a3 8dba e2f8 e8bb fe6c 09bc
00000060: bd30 51bc 9e88 8d3b eef9 743b 1e19 8f3b
00000070: e701 3b3b 09c7 00bc 3aaa d83b b113 ff3b
00000080: 9a60 5cbb ea93 22ba 8f3b ab3a b222 29bb
00000090: 2843 eabb d654 be3a ff2e e13b 6576 01bb
000000a0: 3ca3 0dbc e4ab 26bc c91b be3a 0402 1f3a
000000b0: 2a82 30ba 0b91 033b dc80 0a3b ccda 6bbb
000000c0: bd3d 5abb 90d2 e53a 83c5 47bb 0938 853b
000000d0: 6cf8 c6bb e460 9c3b 17b7 0a3b 48e9 48bb
000000e0: 8104 75bb 788a 173b c531 363a e07f c4bb
000000f0: c6b0 173b d6a1 2b3b 4997 b33a 4960 9f3b
00000100: 8637 69bc e621 37bc 4052 13bc a32c 09bd
00000110: eb63 513b ef79 383b 4ca4 a03b 55c9 0eba
00000120: 10ec cb3b 9097 c43b 2b65 143b 5785 d1bb
00000130: 2e19 4cbb 7693 e5bb e4ce c6bb 70ac a83b
00000140: e936 813b d7d1 c9bb 3c22 6abb d739 34bc
00000150: 56ab 80bc 355d bcbc ec7c acbc e9a8 91bb
00000160: 43c6 a0bb 2ac3 67bc 5d14 69bb 239b 153c
00000170: 6575 b13b 9d4e 313b 3d12 e83b 6033 e73b
00000180: d8a6 0bbc b59e cb3b 0ba1 49ba c2c2 28bb
00000190: 9c60 f43b 213e dbbb 4aac 86ba 6da6 71bc
000001a0: 1030 93bc bdc5 71bb d293 59bc 3bd9 e6bb
000001b0: 5859 923b 1495 cebb f877 663b 0587 af3a
000001c0: 318a a1ba a513 13bc 1206 b53b 0e53 21bc
000001d0: c944 d2ba 16f8 ba3b 6dc4 8ebb 3e6f f3ba
000001e0: f92b 863b 1fc7 efbb dc2f 1abc 669e f2bb
000001f0: 0cd1 803b 789b 1abb d2e0 88ba 4519 e03a
00000200: 4963 d33b 50f7 da3b e0eb 1bbb 642f f33a
00000210: d6d7 74bb 193c 0dbc ae05 00bc e92d 0b3c
00000220: d890 c1ba 7fdb 1dbc e96c 38bb c793 c3bc
00000230: 70e1 4cbc 9b15 7abc 2bf5 47bc 97bf 83bb
00000240: 15aa 84bc d147 29bb 3d2d dc3a e82a 7a38
00000250: 609d bebb a44a 463b 3ffd 95bb b0dc c33b
00000260: 0e87 a93b 45aa 01bc 7347 193b 7008 d7bb
00000270: 4123 82bc 7cfa 1bbc 2276 20bc 65fe 44bb
00000280: 97f0 13bc b988 2339 fc94 893b edbb 24bc
00000290: 0501 0dbc fcef a0bb 4570 6c3b 2621 94bb
000002a0: 2548 cebb 13f1 9e3b 707a 9fbb 7284 38bb
000002b0: a6e0 58ba 5fa4 4fbc 955c 00bc d778 fbbc
000002c0: 2133 28bc e8d7 9ebc 0339 a5bc 61e2 c1bb
000002d0: ad60 efbb aac7 003a 380f 643a 48ba 23bc
000002e0: 0c53 79bc 2554 93bb 560e f0bb aa55 193b
000002f0: 64d7 d23b a245 ad39 ed0b 4cbb ffb0 da3a
00000300: dc9a 39bb 0659 28bc a5fc a1bc 3223 54bc
00000310: 880f 99bc 6d13 a1bc a9e1 12bc 8baa 7cbc
00000320: 97ae 0fbb 0fd1 3cbc d75b 20bb 90a9 48bc
00000330: 40a8 c2bb 142e a13b 4137 6db9 8ce7 07bc
00000340: 9429 fab9 23bb 3bbc 0404 baba c634 453b
00000350: 2abd 8d3b bc46 c0bc 9cf4 89b7 a063 ddbc
00000360: 4dbc 13bc 3e12 56bc 1d99 87bc 9618 da3a
00000370: b851 6cba 63d2 2bbc ece1 47bc e4d5 3bbc
00000380: b25b 16bc 555d d63b 6b9d e9bb e3b6 763a
00000390: b56e 98ba 6e5e 95ba 6efa d93b e15f ccba
000003a0: ca93 edbc d547 2bbd 0488 8bbc 1108 c33a
000003b0: f2be 56bb ca14 c8bb 55a4 71bc 296f 533b
000003c0: b16a 03ba e455 8f3b ade6 da3b 1159 f6bb
000003d0: fc3e 36bc e120 0b39 a9d0 30bc 6ebc 26bc
000003e0: 76d0 63bb f350 dfbb 5df1 e73b b8b3 8dbc
000003f0: f8ec babc f7ec 6cbc e4a9 bdbb 82ac 8aba
-0.0061623254 0.008244591 0.002486701 -0.00012057225 0.0061334264 0.004220825 0.0001193583 -0.007977599
-0.00960155 -0.0100458255 -0.007298299 -0.000722931 -0.0026101898 0.0011855327 0.0072260657 0.0045818146
-0.0014446802 0.0022217685 0.005220199 -0.006082742 0.005031437 -0.0010806194 -0.0071097473 -0.008387802
-0.012767968 0.0043192646 0.0037380415 0.004367008 0.002853507 -0.007859954 0.0066120895 0.00778433
-0.0033626915 -0.00062018505 0.0013064014 -0.0025808034 -0.007149119 0.0014521133 0.0068720574 -0.0019754407
-0.008644875 -0.010172818 0.001450413 0.0006065669 -0.0006733263 0.0020075466 0.0021133935 -0.0035988567
-0.003330096 0.0017534066 -0.0030482716 0.004065518 -0.0060720947 0.0047722925 0.002116626 -0.0030656625
-0.0037386718 0.0023123305 0.0006950165 -0.005996689 0.0023146137 0.002618899 0.0013701703 0.004863773
-0.014234429 -0.011177516 -0.008991778 -0.033489835 0.0031950425 0.002814885 0.004902398 -0.0005446871
0.006223209 0.005999513 0.0022643309 -0.006394069 -0.0031142938 -0.007006104 -0.0060671438 0.0051475093
0.0039433134 -0.006159048 -0.0035725972 -0.011000118 -0.0157067 -0.022993663 -0.021055661 -0.0044451845
-0.004906447 -0.014145652 -0.0035565116 0.009131226 0.005415606 0.0027054914 0.0070822523 0.007055685
-0.008523665 0.0062139877 -0.0007691539 -0.002575085 0.007457806 -0.006690756 -0.0010274735 -0.014749152
-0.017967254 -0.0036891543 -0.013279872 -0.007044939 0.004466217 -0.0063043926 0.0035166722 0.0013391679
-0.001232451 -0.008976852 0.0055244053 -0.009846462 -0.0016042228 0.0057058437 -0.004356912 -0.0018572581
0.0040945974 -0.0073174383 -0.009410825 -0.0074041365 0.0039311703 -0.0023591202 -0.0010442978 0.0017097375
0.0064510447 0.006682314 -0.0023791716 0.0018553552 -0.0037360094 -0.008620285 -0.007813854 0.008494833
-0.0014767898 -0.0096348515 -0.0028141087 -0.023874177 -0.01250492 -0.01526394 -0.012204449 -0.004020642
-0.016194383 -0.002583016 0.001679815 5.9644604e-05 -0.0058171004 0.0030256892 -0.0045773084 0.0059772357
0.0051735705 -0.007914131 0.0023388534 -0.006562285 -0.015885951 -0.009520169 -0.00979379 -0.0030058858
-0.009029529 0.00015595825 0.0041986685 -0.010054571 -0.0086062 -0.004911421 0.003607766 -0.004520553
-0.0062952214 0.0048505156 -0.0048668906 -0.0028155115 -0.00082732213 -0.0126734665 -0.007834573 -0.03069727
-0.010266096 -0.019390061 -0.020168787 -0.005916879 -0.007305226 0.0004912565 0.00086997775 -0.009993143
-0.015217554 -0.004496115 -0.0073259277 0.0023397007 0.006434368 0.00033049012 -0.0031135038 0.0016684829
-0.0028321063 -0.010275131 -0.01977379 -0.012947844 -0.018684164 -0.019662583 -0.008964934 -0.01542152
-0.0021924132 -0.011524453 -0.0024468803 -0.012247458 -0.005940467 0.004918823 -0.00022622665 -0.008294951
-0.00047714694 -0.011458191 -0.001419187 0.003009127 0.0043255286 -0.023471229 -1.6445578e-05 -0.027025044
-0.009017062 -0.013065873 -0.016552502 0.0016639407 -0.00090148626 -0.010487172 -0.01219986 -0.01146457
-0.009177135 0.0065418878 -0.0071293614 0.00094114075 -0.0011629673 -0.001139594 0.006652168 -0.0015592539
-0.029001135 -0.04181655 -0.01703263 0.0014879723 -0.003276762 -0.006105994 -0.014748652 0.0032262302
-0.00050131517 0.0043742526 0.0066803307 -0.0075179418 -0.011123415 0.00013268321 -0.010791936 -0.010176761
-0.0034761704 -0.00681507 0.0070783333 -0.01729761 -0.022818074 -0.014460794 -0.005788075 -0.0010579976

bias f4 [10]
00000000: 7c7a 38bf ce0e 41bf e97a 5dbf 86c0 6dbf
00000010: 6d2d 6ebf 1871 6fbf 954b 7bbf be6e 78bf
00000020: b123 7bbf 3c0b 6dbf
-0.72061896 -0.75413215 -0.8651567 -0.9287189 -0.93038064 -0.9353194 -0.98162204 -0.9704398
-0.98101336 -0.9259527
