experiments/linear_probe/epoch6.ckpt (torch, 463423 bytes, 2 tensors)

weight f4 [10, 11552]
000000 b4 63 c8 bb cd 18 08 3c 43 d5 28 3b 49 76 e1 39
       -0.006115401 0.008306694 0.002576188 0.00043003474
000010 3f 8a cd 3b bc 9c 8f 3b ab e4 fc 39 60 48 03 bc
       0.0062725837 0.004382698 0.00048235556 -0.008012861
000020 b6 d5 1b bc b7 0e 21 bc 73 34 f0 bb 7a da 47 ba
       -0.009511402 -0.009830168 -0.007330471 -0.0007623803
000030 0a d3 30 bb 0a 53 9c 3a 65 61 ee 3b a3 a9 98 3b
       -0.0026981258 0.0011926603 0.007274794 0.004658894
000040 fe 9c a6 ba af 41 2a 3b 47 3a b7 3b 68 96 cc bb
       -0.0012711582 0.0025979092 0.005591664 -0.0062435158
000050 ab 73 a1 3b cc 6b 94 ba b0 2f d1 bb be 01 d5 bb
       0.004927119 -0.001132363 -0.0063838586 -0.006500452
000060 93 c3 49 bc c7 c4 90 3b d7 ba 79 3b 53 3d 93 3b
       -0.012314695 0.004417989 0.003810575 0.0044933944
000070 8f ff 3c 3b 6b 9a 00 bc 77 93 d9 3b 00 12 fc 3b
       0.0028838848 -0.007849316 0.0066398936 0.0076925755
000080 77 7d 5f bb 20 5b 7d ba 04 f1 a6 3a 9d fa 2b bb
       -0.0034101882 -0.0009664763 0.0012736623 -0.0026241906
000090 ee 34 e6 bb 62 65 e3 3a f6 55 e0 3b 9c 8a ff ba
       -0.0070253527 0.001734894 0.006846185 -0.0019496265
0000a0 07 09 0c bc 6c 37 23 bc b0 5f e9 3a 7f 33 1b 3a
       -0.008547074 -0.009961944 0.0017805006 0.0005920454
0000b0 72 28 37 ba 2e 82 11 3b ed 79 15 3b 5c 60 69 bb
       -0.0006986923 0.0022202837 0.002280827 -0.0035610413
0000c0 93 ca 15 bb ed 1c 11 3b 8a b5 45 bb 57 b0 83 3b
       -0.002285634 0.0022142485 -0.003016802 0.004018824
0000d0 2e c5 c6 bb 9b 30 9b 3b 31 8d 09 3b bc 50 42 bb
       -0.006065986 0.004736019 0.0020988698 -0.0029650172
0000e0 ef 0e 71 bb b3 1b 1f 3b ae 7e 31 3a 5f 54 c3 bb
       -0.0036782583 0.0024277985 0.0006770891 -0.0059609856
0000f0 33 53 26 3b 3e a0 37 3b df 02 bb 3a f6 35 a2 3b
       0.002537918 0.0028019096 0.0014267823 0.0049502803
000100 3a ed 5a bc 5d 98 26 bc 2b d3 cd bb 15 6c ee bc
       -0.013362223 -0.010168162 -0.0062812767 -0.029104272
000110 c0 de 89 3b 17 7c 56 3b a3 0c a1 3b 61 2a f6 b9
       0.004207462 0.0032727772 0.0049148365 -0.0004695235
000120 3d 42 cd 3b 79 d3 c4 3b 5a 33 17 3b 53 6d d0 bb
       0.0062639997 0.006006655 0.002307138 -0.0063606887
000130 b5 9a 4b bb 45 ab e5 bb 5d bf c6 bb 09 68 ab 3b
       -0.0031067554 -0.0070089423 -0.0060652927 0.005230908
000140 8b e3 89 3b ee 70 c7 bb c1 41 56 bb 9e db 2a bc
       0.0042080334 -0.0060864603 -0.0032693 -0.010428337
000150 c4 a3 68 bc 6f 20 a0 bc 87 98 83 bc b5 14 58 bb
       -0.014199201 -0.019546716 -0.016063942 -0.0032971327
000160 39 80 89 bb 9c 20 5b bc 05 22 67 bb e2 bd 15 3c
       -0.0041961935 -0.013374474 -0.003526808 0.00913951
000170 78 d5 b0 3b c1 71 30 3b b2 c5 e6 3b 56 22 eb 3b
       0.005396541 0.0026923271 0.00704261 0.007175724
000180 e1 af 0b bc 78 01 cc 3b 4f fc 32 ba f4 87 1b bb
       -0.0085258195 0.006225761 -0.0006827758 -0.0023732157
000190 7c a4 f5 3b 51 79 ac bb 3f ee ac b7 fc 7a 5c bc
       0.0074964147 -0.0052634855 -2.061494e-05 -0.013457056
0001a0 83 44 7f bc a3 d5 c9 ba ef a8 45 bc 44 fe e0 bb
       -0.015580299 -0.0015398752 -0.012064203 -0.0068662483
0001b0 dd 70 92 3b 81 a0 ce bb 9b d2 68 3b 4a d1 b5 3a
       0.0044690208 -0.0063057547 0.0035525921 0.0013871577
0001c0 66 14 a8 ba 19 a7 12 bc b4 a4 b9 3b e0 7a 20 bc
       -0.0012823462 -0.008950972 0.005665386 -0.009794921
0001d0 c6 b8 e6 ba 02 b9 bf 3b 39 9c 80 bb 95 56 de ba
       -0.0017602674 0.005850912 -0.003924873 -0.0016963059
0001e0 c4 12 93 3b c5 b2 e1 bb cf f7 08 bc 13 47 c7 bb
       0.004488321 -0.006887766 -0.008359863 -0.0060814708
0001f0 01 aa 8f 3b be 46 07 bb 2d 31 70 ba b5 0f eb 3a
       0.0043842797 -0.002064153 -0.0009162601 0.0017933758
000200 cf f4 d7 3b f7 19 dd 3b 91 12 16 bb f2 d2 fa 3a
       0.0065904628 0.00674748 -0.002289925 0.0019136353
000210 e6 c2 76 bb b8 d7 08 bc 2b 71 02 bc 5d d7 0b 3c
       -0.003765279 -0.008352213 -0.007961552 0.008535233
000220 13 14 98 ba 35 bb ce bb 8d fa 08 bb d4 04 a6 bc
       -0.0011602662 -0.006308938 -0.0020901293 -0.020265974
000230 1a 3a 38 bc 7d 8d 5d bc cc e0 15 bc ab d0 1d bb
       -0.011244321 -0.013522503 -0.009147834 -0.0024080675
000240 4b 24 5d bc b1 c2 0b ba d0 34 05 3b 7b 3a fd 39
       -0.013497422 -0.00053314405 0.0020325668 0.00048299492
000250 e4 40 ba bb bb 22 53 3b d9 39 94 bb 5b 4b c4 3b
       -0.005684005 0.0032216746 -0.0045234975 0.0059904284
000260 d5 7d af 3b 6b fd 01 bc 11 7d 20 3b 11 f7 9e bb
       0.0053555765 -0.007933955 0.0024488608 -0.00485123
000270 b7 c3 4f bc 22 61 ef bb 78 eb dc bb 31 f0 fa ba
       -0.012680939 -0.0073052803 -0.0067419372 -0.0019145069
000280 54 e0 05 bc f0 00 80 3a 9f 17 9a 3b 18 86 15 bc
       -0.00817116 0.0009765904 0.004702523 -0.009126209
000290 0a 28 01 bc f1 1c 95 bb 7e 6f 89 3b cf 78 8b bb
       -0.007883081 -0.004550569 0.004194199 -0.004256345
0002a0 98 98 c5 bb 8d e6 a0 3b 3e 5e 94 bb 8b 38 69 ba
       -0.0060301535 0.0049102963 -0.004527836 -0.000889667
0002b0 31 c5 d4 b9 64 d8 35 bc d5 b6 9f bb ff a0 d2 bc
       -0.0004058271 -0.011098955 -0.00487409 -0.025711535
0002c0 75 2f f6 bb ac f3 78 bc 0c 39 8f bc 84 7b 93 bb
       -0.0075129815 -0.015194815 -0.017483257 -0.004500808
0002d0 8f f1 ca bb f1 ad 92 3a 41 25 22 3b f0 c6 ff bb
       -0.006193347 0.0011190755 0.0024741443 -0.0078056976
0002e0 c0 ab 5d bc f6 d4 66 bb b8 0b d4 bb 56 70 2d 3b
       -0.013529718 -0.003522215 -0.0064711235 0.0026464663
0002f0 2e a2 d6 3b a2 e1 14 3a b5 32 f8 ba 07 f6 18 3b
       0.006550095 0.0005679374 -0.001893601 0.0023340003
000300 8d fb 27 bb 37 10 07 bc 47 a9 8f bc f5 cf 40 bc
       -0.0025632114 -0.008243612 -0.017536772 -0.011768331
000310 a1 67 83 bc c1 a0 7e bc 02 2e f1 bb bc 00 68 bc
       -0.016040625 -0.015541256 -0.007360221 -0.014160331
000320 e9 73 af ba 44 be 2d bc 8a 1c ce ba f8 56 36 bc
       -0.0013385984 -0.010604445 -0.0015725058 -0.011129133
000330 11 16 a5 bb 1f 9f bb 3b c4 08 71 b7 5b ef 05 bc
       -0.005038031 0.005725756 -1.436676e-05 -0.008174743
000340 3a cb 1f b9 d9 dd 2d bc 5c ae c9 b7 8f dd 46 3b
       -0.0001523913 -0.010611975 -2.404226e-05 0.0030344462
000350 be 3d a8 3b e5 5e a7 bc 35 d0 a2 3a 77 48 c1 bc
       0.0051343134 -0.020430991 0.001242167 -0.023594124
000360 2f ef d3 bb 18 7c 49 bc 1c cd 6e bc 1e 8b 30 3b
       -0.006467722 -0.012297653 -0.014575269 0.002693839
000370 bd 9f b2 b9 61 ca 1b bc c4 e4 3c bc 5f f8 26 bc
       -0.0003406982 -0.0095087 -0.011529151 -0.010191052
000380 ef f5 0a bc b0 06 d8 3b d0 48 e4 bb 3c 16 92 3a
       -0.008481487 0.006592594 -0.0069666877 0.0011145542
000390 f1 6d 6d ba 03 98 18 ba 9b 57 de 3b 7d f3 bd b9
       -0.0009057215 -0.00058209914 0.0067853457 -0.00036230302
0003a0 a6 3b ba bc a2 d1 0e bd 3e 60 69 bc bb ad 0c 3b
       -0.02273352 -0.03486789 -0.014244137 0.0021465856
0003b0 55 41 10 bb 90 f9 84 bb b6 63 63 bc 0a 8b 6b 3b
       -0.0022011597 -0.0040580705 -0.013878753 0.0035941028
0003c0 e5 c6 33 3a aa 08 a9 3b d4 2f e7 3b 99 ce ce bb
       0.00068579457 0.0051585035 0.007055262 -0.0063112495
0003d0 66 1f 21 bc 39 98 70 3a 57 99 28 bc 82 37 20 bc
       -0.009834146 0.00091779564 -0.010290465 -0.009778859
0003e0 c5 28 37 bb 03 a2 de bb 0c 17 eb 3b 8e cf 57 bc
       -0.0027947885 -0.0067942156 0.0071743783 -0.0131720435
0003f0 f4 9c 90 bc c5 30 5b bc b9 ea b2 bb d2 b9 8b b9
       -0.017652966 -0.013378327 -0.00546011 -0.00026650593

bias f4 [10]
000000 8c ea 33 bf a7 ee 3a bf 05 73 56 bf 62 f0 65 bf
       -0.70279765 -0.73020405 -0.83769256 -0.8981992
000010 23 e3 66 bf 01 7c 65 bf 97 0a 71 bf b3 90 6f bf
       -0.90190333 -0.8964234 -0.94156784 -0.9358017
000020 42 b9 71 bf 47 eb 63 bf
       -0.94423306 -0.8903088
