experiments/bs_probe/best.ckpt (torch, 349087 bytes, 6 tensors)

weight f4 [10, 2888]
0.006188313 -0.15855339 -0.0042194384 -0.05251096 0.056963373 -0.072790146 -0.027343282 -0.07524166
0.022767797 -0.10399139 0.00026074698 0.14582537 -0.080585904 0.002847785 -0.020826777 -0.020867914
0.033517364 -0.049136505 0.02337706 -0.029388031 0.039942212 -0.009924607 -0.011815487 0.014872266
-0.010228233 -0.08021954 -0.021159546 0.015182957 -0.07973266 -0.021490732 0.011197658 -0.05259652
0.0081769675 -0.052439313 -0.13186055 -0.018518386 0.042991225 -0.14542042 -0.0077648326 -0.04357433
0.032352567 0.044738337 -0.08119919 0.039015245 -0.02038515 -0.042990163 0.105346695 -0.10717918
-0.09089368 0.006679369 0.07077743 -0.003361597 -0.06599 0.013441012 0.023007704 -0.048100922
-0.1275296 -0.25581565 -0.0061508752 0.08375473 0.0912528 0.038371995 0.013131113 -0.042943023
0.053397987 0.0012332691 -0.07908945 -0.09111257 0.042896993 -0.078545384 -0.033505835 -0.13332438
0.0127350185 0.0013765596 0.017733075 0.017277537 0.0050295983 -0.097635664 -0.1411891 0.042131893
-0.023101939 -0.028468084 -0.06054712 0.05462325 0.0872204 0.048210576 -0.28926426 0.0104826735
-0.044481765 -0.103549324 -0.017471217 0.045686774 -0.113859035 0.06068127 0.043120738 -0.07591694
0.015715469 0.07029198 -0.25179088 -0.00947034 -0.14858131 0.12368351 -0.09958257 -0.15590687
0.03814573 -0.04756977 0.13024075 0.06626686 -0.08141044 -0.038066186 -0.07398908 -0.079529285
0.07208321 -0.044966098 0.10870897 0.0077287666 0.103783 0.07045971 0.024204245 0.02435903
-0.07101626 -0.05731956 -0.1543532 -0.17622261 0.053241994 -0.013153521 -0.054278556 0.0129618505
-0.08987812 -0.07469741 -0.042613514 -0.0003969922 -0.0691935 -0.18435416 0.039935447 -0.039213877
0.017684555 -0.017629277 -0.03555722 -0.074289195 0.042626847 0.0072922697 0.020980565 -0.13019498
-0.09626297 0.05336623 -0.053511843 0.06285225 -0.0065961713 -0.022776518 -0.005733442 -0.17875382
-0.07318889 -0.003952224 -0.00036217974 0.027615724 -0.083085425 -0.050544836 -0.019190291 -0.1078641
-0.11571823 0.0088488655 0.04366197 -0.065799795 -0.108434714 -0.06412922 -0.05772809 -0.08647552
-0.029505806 0.13663656 -0.0969278 -0.1580452 -0.0019076248 0.074318826 -0.083414175 -0.03553051
-0.043985225 -0.21351549 -0.12889567 -0.11159764 -0.103546515 -0.06232575 -0.14815967 0.020678643
-0.22850671 -0.2207348 -0.034174792 -0.102900356 -0.17233953 -0.0772702 -0.06291037 -0.025199074
0.007525502 -0.09931035 -0.021119121 0.03539495 -0.05050265 -0.060083788 -0.110874355 -0.06295657
-0.06242049 -0.05436034 0.012747603 -0.019523235 0.00917696 0.07103085 0.024988484 -0.01201239
-0.108157404 -0.0111727845 0.055865917 0.019781342 -0.023780521 -0.055271767 -0.16672276 -0.05876058
0.035320003 -0.083197296 -0.046114314 -0.03667846 0.015329125 -0.03057815 -0.00384269 -0.06142184
-0.025645373 0.07300391 -0.02996569 -0.096423775 0.0059536444 -0.0034449757 0.013191591 -0.04952337
0.029266974 -0.026337188 0.011179742 -0.117228515 -0.07008554 -0.13926505 0.06601197 0.010052193
-0.009891098 -0.13698313 -0.040878963 -0.19243017 0.0883293 0.05421211 0.022111436 -0.0018114492
-0.045215778 -0.07681015 0.0020662325 0.040009856 0.011987681 -0.05288337 -0.10908281 -0.16527149
00000000: 55c7 ca3b d25b 22be 3743 8abb bb15 57bd
00000010: 6d52 693d 0013 95bd 05ff dfbc 4d18 9abd
00000020: 8883 ba3c 70f9 d4bd deb4 8839 3f53 153e
00000030: 390a a5bd e7a1 3a3b eb9c aabc 30f3 aabc
00000040: 8149 093d 5c43 49bd 4081 bf3c 2bbf f0bc
00000050: 729a 233d d29a 22bc bf95 41bc ceaa 733c
00000060: 5294 27bc 244a a4bd c956 adbc f0c1 783c
00000070: e04a a3bd 550d b0bc 6276 373c 736f 57bd
00000080: b0f8 053c 9bca 56bd 7406 07be dfb3 97bc
00000090: 9117 303d 17e9 14be 2370 febb ff7a 32bd
000000a0: 2084 043d 8c3f 373d c34b a6bd 73ce 1f3d
000000b0: c2fe a6bc 7416 30bd 02c0 d73d c280 dbbd
000000c0: 7726 babd 9cde da3b c2f3 903d 3d4e 5cbb
000000d0: c425 87bd b137 5c3c a77a bc3c 7905 45bd
000000e0: 1f97 02be 45fa 82be 488d c9bb 9a87 ab3d
000000f0: bfe2 ba3d f42b 1d3d e123 573c 06e5 2fbd
00000100: d9b7 5a3d a5a5 a13a a6f9 a1bd 3a99 babd
00000110: c2b4 2f3d 67dc a0bd 6a3d 09bd 3086 08be
00000120: 8aa6 503c ad6d b43a f444 913c 9f89 8d3c
00000130: 54cf a43b 35f5 c7bd e093 10be 7e92 2c3d
00000140: 4740 bdbc e635 e9bc 4200 78bd a1bc 5f3d
00000150: 9ca0 b23d 7478 453d 721a 94be 85bf 2b3c
00000160: 8332 36bd ab11 d4bd cc1f 8fbc 0e22 3b3d
00000170: ed2e e9bd ec8c 783d 5f9f 303d 577a 9bbd
00000180: babd 803c 3ef5 8f3d bcea 80be 7c29 1bbc
00000190: b325 18be c84d fd3d f2f1 cbbd 0da6 1fbe
000001a0: b23e 1c3d 85d8 42bd d55d 053e ebb6 873d
000001b0: 84ba a6bd 4aeb 1bbd 9687 97bd 40e0 a2bd
000001c0: 5da0 933d 5f2e 38bd cfa2 de3d 9841 fd3b
000001d0: 2e8c d43d 2e4d 903d fb47 c63c 978c c73c
000001e0: f970 91bd eac7 6abd c40e 1ebe b373 34be
000001f0: 4714 5a3d de81 57bc 3153 5ebd f15d 543c
00000200: 0512 b8bd f5fa 98bd 828b 2ebd 6423 d0b9
00000210: 52b5 8dbd 56c7 3cbe 5a93 233d bb9e 20bd
00000220: 33df 903c 466b 90bc 73a4 11bd ef24 98bd
00000230: 7d99 2e3d fef3 ee3b 6fdf ab3c d551 05be
00000240: 8525 c5bd 8c96 5a3d 3c2f 5bbd aeb8 803d
00000250: b224 d8bb d295 babc 99df bbbb 3e0b 37be
00000260: 0fe4 95bd a881 81bb f1e2 bdb9 5f3a e23c
00000270: b128 aabd 1a08 4fbd f534 9dbc dae7 dcbd
00000280: aefd ecbd d5fa 103c e5d6 323d 0bc2 86bd
00000290: 0513 debd 2e56 83bd 4a74 6cbd 141a b1bd
000002a0: 29b6 f1bc 74ea 0b3e 1582 c6bd 9ad6 21be
000002b0: 4409 faba 7834 983d 0dd5 aabd 7188 11bd
000002c0: da29 34bd cea3 5abe 3afd 03be 4e8d e4bd
000002d0: 3210 d4bd 4949 7fbd 2bb7 17be 4266 a93c
000002e0: aafd 69be 4e08 62be defa 0bbd 6cbd d2bd
000002f0: c679 30be d73f 9ebd 27d7 80bd 4a6e cebc
00000300: 7c98 f63b 3a63 cbbd 0202 adbc 4cfa 103d
00000310: dedb 4ebd 6b1a 76bd 1812 e3bd 60ef 80bd
00000320: a1ac 7fbd f3a8 5ebd 52db 503c 31ef 9fbc
00000330: f65a 163c 9f78 913d a6b4 cc3c 9ecf 44bc
00000340: a181 ddbd 0e0e 37bc a9d3 643d 7b0c a23c
00000350: 5ecf c2bc a664 62bd 5fb9 2abe efae 70bd
00000360: b5ab 103d 5863 aabd 5de2 3cbd 273c 16bd
00000370: 0327 7b3c 077f fabc a4d5 7bbb 7895 7bbd
00000380: 3f16 d2bc 1383 953d 9b7a f5bc d479 c5bd
00000390: ca16 c33b 1ac5 61bb 8b21 583c 04d9 4abd
000003a0: 4bc1 ef3c 16c1 d7bc 3d2b 373c 8115 f0bd
000003b0: 0289 8fbd 7f9b 0ebe 4931 873d f4b1 243c
000003c0: 460e 22bc 4e45 0cbe b370 27bd 6a0c 45be
000003d0: fee5 b43d 840d 5e3d 0b23 b53c 266e edba
000003e0: 2e34 39bd a44e 9dbd a169 073b 60e1 233d
000003f0: fa67 443c 3c9c 58bd cf66 dfbd ee3c 29be

bias f4 [10]
-0.010787852 -0.0004240989 -0.01590007 -0.017300194 0.010481742 -0.018306397 -0.021250868 -0.02636283
0.008316523 -0.013265139
00000000: 88bf 30bc 9759 deb9 dd40 82bc 23b9 8dbc
00000010: 9dbb 2b3c 4cf7 95bc 4d16 aebc ddf6 d7bc
00000020: 0742 083c 0756 59bc

exp_avg f4 [10, 2888]
-5.965147e-06 6.7630194e-06 1.2806131e-05 7.016649e-06 9.487892e-06 1.3765556e-06 2.7914466e-05 -8.3589264e-05
-1.9490946e-05 1.3130351e-06 1.1227923e-05 -0.00018012065 -4.9333004e-05 5.9130038e-08 -6.1283194e-05 8.915011e-06
5.3897907e-06 3.4467773e-06 2.3732566e-06 2.9339528e-05 9.588937e-07 2.7847755e-05 2.7487036e-05 9.94774e-06
1.010991e-05 1.795058e-05 -2.922701e-05 -9.121351e-06 6.89008e-06 -4.4513872e-05 -5.2312553e-05 2.3869702e-06
2.999402e-06 2.289279e-06 1.6688748e-05 1.0784215e-05 -9.965799e-05 4.425262e-05 2.9689434e-06 1.1997379e-05
-5.3582855e-05 -3.5980123e-05 3.4727014e-05 4.0341234e-05 4.628544e-05 1.4323447e-05 6.0330676e-06 5.433262e-06
2.5446794e-05 -2.8501268e-05 1.5048371e-05 -9.51201e-05 -0.00011842628 1.6905644e-05 2.7582037e-05 7.342155e-07
3.4809225e-06 3.0321157e-06 3.7842492e-06 8.189414e-06 4.891647e-05 2.9660467e-05 -7.827691e-05 -7.013367e-05
8.206385e-06 7.922195e-06 2.7157103e-05 3.2264063e-05 -0.00011294025 1.3161914e-05 4.1215477e-05 2.0610976e-05
9.983806e-06 2.0939688e-05 1.0861713e-05 1.7934248e-05 3.4166303e-06 -0.00010714321 2.0325546e-05 1.3077883e-05
1.7765171e-06 1.3926917e-05 2.9451865e-05 1.1160338e-05 1.7175355e-05 2.506976e-06 2.6383388e-05 5.4962484e-06
1.32697205e-05 3.9596824e-05 1.5084269e-05 -4.9512975e-05 -8.370635e-05 1.4875784e-05 -7.890601e-05 3.3741728e-06
1.0422326e-06 1.8121238e-05 1.7164468e-05 1.04726605e-05 7.285495e-06 8.632007e-06 1.870306e-05 1.3783083e-05
1.8519384e-05 9.970297e-06 -0.00010382658 1.7127442e-05 1.4698834e-05 6.918901e-06 2.4055586e-05 1.5037785e-06
4.611532e-05 1.964062e-07 5.3991653e-06 1.1916526e-06 -8.3436884e-05 2.3028808e-05 1.6039021e-05 1.0093864e-05
1.0575815e-05 1.1057565e-05 1.3762148e-06 2.8135153e-05 1.1710453e-05 -9.129118e-05 6.9367793e-06 6.653987e-06
1.1582866e-05 1.3076423e-05 4.873629e-06 2.5046688e-06 8.730035e-06 -0.00011504567 1.3220438e-05 -0.000118805816
-0.0001062496 3.822188e-05 6.062039e-07 -6.9446796e-05 2.2628483e-05 1.2167234e-05 2.732651e-06 1.0548678e-05
4.0890853e-08 7.0552665e-06 -4.8686536e-05 -7.185234e-05 7.125238e-06 1.2598804e-05 1.8956913e-05 3.7797008e-06
-0.00011933925 -0.00011994591 -0.00020110722 1.2458834e-05 8.852176e-06 1.0940793e-05 1.3179104e-05 -2.0194086e-05
-1.1113144e-05 1.4183635e-05 -6.6532746e-05 6.653662e-06 -6.7743604e-05 -6.754338e-05 3.3808146e-07 1.9604782e-05
1.511613e-05 2.7161383e-07 2.277967e-05 6.48795e-06 -0.00016248722 2.0175437e-05 -1.5787963e-06 -1.021431e-06
9.310591e-06 7.874814e-07 6.390367e-06 6.569269e-06 1.7879944e-05 -1.8804075e-06 1.23185355e-05 -6.893293e-05
2.2370188e-05 1.4734662e-05 2.1959342e-05 1.8725521e-05 -3.2326847e-05 1.893886e-05 -0.00010786461 1.4976171e-06
2.950648e-06 1.219692e-05 -8.799768e-05 2.406263e-05 2.8333934e-05 4.7939548e-06 1.3752409e-05 -1.3305818e-05
-7.786719e-05 -5.469402e-05 -6.804836e-05 5.7098173e-06 -1.4536297e-05 1.601787e-05 8.168471e-06 -6.253481e-05
7.272091e-06 -0.00011391102 -0.00011612564 1.7220436e-05 -4.7173206e-05 -6.401278e-05 1.0974161e-05 2.635714e-06
2.2223367e-05 4.1236064e-05 3.455364e-05 3.832547e-06 6.5229324e-06 -5.808838e-05 1.3374981e-05 5.979129e-06
3.634316e-05 -8.53394e-05 9.4871905e-07 1.4782275e-07 6.4444043e-06 2.7684314e-07 -2.571249e-05 -8.019973e-06
6.055647e-06 2.8899142e-06 1.2183044e-05 -6.465248e-05 2.4294077e-05 8.366067e-06 3.4153845e-06 5.3006047e-06
8.593287e-06 1.335477e-06 5.510945e-06 1.2183707e-05 5.5360146e-05 3.5003945e-05 3.1873733e-05 5.6292924e-06
-9.533649e-07 -9.720065e-05 -3.405327e-06 9.502884e-06 5.3245963e-06 1.9359786e-05 1.5711505e-05 -5.173079e-05
00000000: 3928 c8b6 e5ed e236 ead9 5637 8e70 eb36
00000010: 302e 1f37 17c2 b835 dc29 ea37 a54c afb8
00000020: 7d80 a3b7 8b3b b035 905f 3c37 c5de 3cb9
00000030: e9ea 4eb8 2af6 7d33 2a85 80b8 ae91 1537
00000040: f3d9 b436 2f4f 6736 3d44 1f36 281e f637
00000050: 56b3 8035 999a e937 f693 e637 38e5 2637
00000060: bc9d 2937 9494 9637 872c f5b7 e707 19b7
00000070: 5631 e736 68b4 3ab8 2d6a 5bb8 d62f 2036
00000080: 5649 4936 84a1 1936 d0fe 8b37 daed 3437
00000090: 7aff d0b8 e49b 3938 0f3e 4736 5a48 4937
000000a0: 27be 60b8 5de9 16b8 d9a7 1138 1234 2938
000000b0: 9d22 4238 bd4e 7037 a86f ca36 5d4f b636
000000c0: 9376 d537 0216 efb7 4378 7c37 377b c7b8
000000d0: a05b f8b8 98d0 8d37 f95f e737 e816 4535
000000e0: cb99 6936 5a7b 4b36 e8f4 7d36 4465 0937
000000f0: a92b 4d38 5ecf f837 9928 a4b8 ba14 93b8
00000100: 28ae 0937 92e9 0437 6fcf e337 4653 0738
00000110: 56da ecb8 fdd1 5c37 c8de 2c38 bce5 ac37
00000120: 1f80 2737 a3a7 af37 b43a 3637 8171 9637
00000130: 4349 6536 13b2 e0b8 c780 aa37 1469 5b37
00000140: aa70 ee35 a7a7 6937 660f f737 493d 3b37
00000150: cb13 9037 853d 2836 e551 dd37 6a6c b836
00000160: 04a1 5e37 c414 2638 7112 7d37 27ac 4fb8
00000170: 818b afb8 0193 7937 577a a5b8 d96f 6236
00000180: d7e2 8b35 1003 9837 6afc 8f37 bcb3 2f37
00000190: ed75 f436 30d2 1037 84e4 9c37 e43d 6737
000001a0: 135a 9b37 1946 2737 78bd d9b8 e7ac 8f37
000001b0: 039b 7637 e828 e836 faca c937 70d5 c935
000001c0: f36b 4138 bae3 5234 7a2a b536 dff0 9f35
000001d0: d6fa aeb8 fd2d c137 898b 8637 d158 2937
000001e0: c86e 3137 e183 3937 61b6 b835 c803 ec37
000001f0: 0378 4437 9473 bfb8 7bc2 e836 5045 df36
00000200: 0854 4237 cf62 5b37 2888 a336 e215 2836
00000210: 3777 1237 ac44 f1b8 59cd 5d37 6327 f9b8
00000220: 52d2 deb8 6e50 2038 04ba 2235 f7a3 91b8
00000230: 4cd2 bd37 df21 4c37 9662 3736 3afa 3037
00000240: f89f 2f33 47bc ec36 c534 4cb8 6eaf 96b8
00000250: 5415 ef36 735f 5337 a905 9f37 c4a6 7d36
00000260: c645 fab8 788b fbb8 4fe0 52b9 4906 5137
00000270: ce83 1437 598e 3737 d21b 5d37 7866 a9b7
00000280: 9772 3ab7 40f6 6d37 7f87 8bb8 8542 df36
00000290: 9211 8eb8 13a6 8db8 9081 b534 f374 a437
000002a0: 499b 7d37 52d2 9134 f816 bf37 11b3 d936
000002b0: 5561 2ab9 6c3e a937 07e7 d3b5 1a18 89b5
000002c0: af34 1c37 4f63 5335 d66c d636 976d dc36
000002d0: e3fc 9537 4f62 fcb5 b5ab 4e37 1690 90b8
000002e0: 9da7 bb37 e434 7737 5435 b837 c014 9d37
000002f0: b096 07b8 e4de 9e37 5f35 e2b8 bb01 c935
00000300: bf03 4636 5fa1 4c37 658b b8b8 1bda c937
00000310: a9ae ed37 c2db a036 26ba 6637 0e3c 5fb7
00000320: a14c a3b8 4267 65b8 2fb5 8eb8 f596 bf36
00000330: ece0 73b7 1d5e 8637 510b 0937 1f25 83b8
00000340: c902 f436 83e3 eeb8 7a88 f3b8 9b74 9037
00000350: d8db 45b8 993e 86b8 aa1d 3837 39e1 3036
00000360: 516c ba37 e3f4 2c38 b0ed 1038 5499 8036
00000370: 90df da36 eca3 73b8 1b65 6037 54a0 c836
00000380: 2c6f 1838 3ef8 b2b8 7aab 7e35 35b9 1e34
00000390: 033d d836 08a1 9434 27b1 d7b7 868d 06b7
000003a0: 9d31 cb36 59f0 4136 c765 4c37 0996 87b8
000003b0: 22cb cb37 fc5b 0c37 dc33 6536 d9db b136
000003c0: e32b 1037 a43e b335 a8ea b836 a068 4c37
000003d0: 8132 6838 33d1 1238 29b0 0538 41e3 bc36
000003e0: bdea 7fb5 34d8 cbb8 1387 64b6 936e 1f37
000003f0: efa9 b236 d366 a237 33cc 8337 83f9 58b8

exp_avg_sq f4 [10, 2888]
5.524516e-09 7.940449e-09 2.1537005e-08 7.294531e-09 1.6947558e-08 1.2377492e-08 1.255619e-08 8.5552925e-09
1.5903643e-08 3.4929586e-09 1.3317954e-08 2.8850195e-08 8.995208e-09 1.6626819e-08 6.8311983e-09 1.2350072e-08
2.7605177e-08 1.2620617e-08 1.0806175e-08 8.2709715e-09 1.5491047e-08 2.5653318e-08 1.7958348e-08 3.1243395e-08
1.6371134e-08 1.2373749e-08 1.9719558e-08 2.3797282e-08 1.7728965e-08 2.5832021e-08 2.0207208e-08 1.6683945e-08
3.607783e-08 1.5717587e-08 1.2878546e-08 2.3540426e-08 1.7666524e-08 7.363164e-09 1.0513015e-08 1.4364027e-08
5.1010264e-08 3.8740858e-08 2.512709e-08 4.2419074e-08 2.271324e-08 3.4104662e-08 3.5336168e-08 2.5643933e-08
2.5015447e-08 4.050129e-08 4.549665e-08 3.9015426e-08 2.8257244e-08 3.491139e-08 6.390234e-08 2.4501105e-08
1.4371313e-08 1.107537e-08 2.4075854e-08 4.6119023e-08 4.148645e-08 3.5480085e-08 2.8532318e-08 3.023786e-08
2.1788436e-08 2.6592177e-08 1.940816e-08 1.8051331e-08 4.744605e-08 2.7392053e-08 2.0759202e-08 2.2776822e-08
2.402713e-08 2.8542225e-08 3.2855233e-08 1.03775575e-08 1.6447194e-08 1.7242606e-08 2.0108994e-08 3.1514215e-08
3.569098e-08 2.646646e-08 1.630806e-08 2.7393376e-08 3.1183678e-08 2.5420634e-08 1.1730025e-08 2.116667e-08
1.8238389e-08 1.6286325e-08 2.5228589e-08 3.017443e-08 2.712063e-08 2.6812131e-08 2.1781313e-08 1.0420626e-08
2.2692127e-08 4.664996e-08 5.158598e-09 2.5239776e-08 1.9671345e-08 3.8738513e-08 1.8145604e-08 1.287811e-08
2.3534936e-08 1.9602231e-08 4.142521e-08 3.5648263e-08 1.375236e-08 2.1075541e-08 2.4963656e-08 4.40783e-08
4.0610864e-08 8.893949e-09 2.0621089e-08 1.7598666e-08 3.2374388e-08 2.8028278e-08 2.1402368e-08 2.6942203e-08
1.8710066e-08 2.2196883e-08 1.1365117e-08 1.0650227e-08 2.648272e-08 1.7093615e-08 1.8372486e-08 1.6679323e-08
1.8191676e-08 3.0575382e-08 1.3137014e-08 2.0437176e-08 1.1156636e-08 6.850356e-09 2.377651e-08 2.8998578e-08
2.9307401e-08 2.058379e-08 1.8276449e-08 1.9470079e-08 2.0367358e-08 1.2900685e-08 1.6706027e-08 9.903931e-09
1.3800498e-08 2.2032445e-08 2.7332362e-08 3.3441513e-08 2.6577963e-08 2.981614e-08 1.6216644e-08 3.788525e-09
1.0497346e-08 2.710271e-08 4.232142e-08 2.6134233e-08 1.2840915e-08 1.2169373e-08 1.2209708e-08 1.1560866e-08
9.039284e-09 1.554138e-08 2.4906747e-08 1.4845423e-08 1.3765562e-08 1.575238e-08 1.9044407e-08 2.4925503e-08
3.433791e-08 3.3883783e-08 1.0379406e-08 9.152394e-09 3.0755636e-08 4.536514e-08 3.1948872e-08 2.3066434e-08
2.0158856e-08 6.1741954e-09 8.0017e-09 9.096035e-09 1.3359909e-08 1.42382275e-08 1.7727935e-08 1.9715271e-08
1.2546586e-08 1.4743248e-08 2.7230909e-08 2.4319363e-08 1.5896028e-08 2.391491e-08 1.0560912e-08 2.1001911e-08
3.178052e-08 2.3143631e-08 1.9992644e-08 2.2508527e-08 1.7610404e-08 1.3141574e-08 1.1698878e-08 1.3867212e-08
1.4640012e-08 1.3056614e-08 2.0964183e-08 1.4450413e-08 2.6097736e-08 3.410286e-08 4.0752976e-08 2.1530779e-08
8.971829e-09 6.007857e-09 2.1859163e-08 3.9297312e-08 2.4980416e-08 2.0937518e-08 1.2876625e-08 8.321242e-09
2.1107507e-08 5.6915863e-09 1.9643235e-08 1.209944e-08 2.3405375e-08 2.7068536e-08 2.242903e-08 1.582552e-08
1.9800833e-08 4.655881e-08 1.2937521e-08 7.3429356e-09 1.2335155e-08 2.0892948e-08 2.6657588e-08 1.7057308e-08
1.769067e-08 1.7874408e-08 1.3057709e-08 1.4645693e-08 9.70482e-09 9.998097e-09 1.9337456e-08 2.1452674e-08
1.7249741e-08 1.2327857e-08 2.0708601e-08 1.0949965e-08 5.072642e-08 4.205437e-08 3.397915e-08 1.015922e-08
1.7008452e-08 3.0485094e-08 2.8856025e-08 2.1362768e-08 2.27886e-08 1.1710218e-08 1.211683e-08 1.3079889e-08
00000000: 28d2 bd31 776a 0832 6000 b932 60a3 fa31
00000010: 1394 9132 c9a4 5432 b5b6 5732 93fa 1232
00000020: 7b9c 8832 c708 7031 fbcc 6432 40d2 f732
00000030: 5889 1a32 c3d2 8e32 dbb7 ea31 312c 5432
00000040: 6d20 ed32 10d2 5832 0fa6 3932 1e18 0e32
00000050: 2c11 8532 3e5c dc32 d342 9a32 7a30 0633
00000060: 81a0 8c32 5394 5432 c463 a932 c76a cc32
00000070: 684a 9832 37e5 dd32 1f94 ad32 6250 8f32
00000080: fef3 1a33 5703 8732 7240 5d32 f235 ca32
00000090: 19c1 9732 13ff fc31 bb9c 3432 a9c5 7632
000000a0: 6116 5b33 0664 2633 0ed7 d732 4430 3633
000000b0: f11a c332 797a 1233 87c4 1733 9b47 dc32
000000c0: 8de1 d632 a4f3 2d33 1868 4333 ea91 2733
000000d0: 56ba f232 7bf1 1533 af3a 8933 8076 d232
000000e0: b4e5 7632 fe45 3e32 5dcf ce32 6714 4633
000000f0: d62e 3233 c462 1833 3b17 f532 e1de 0133
00000100: 4729 bb32 d16c e432 ffb6 a632 4c0f 9b32
00000110: 7cc7 4b33 c34b eb32 f851 b232 c3a6 c332
00000120: 3864 ce32 042d f532 b61c 0d33 fb48 3232
00000130: c347 8d32 e41c 9432 25bc ac32 3f5a 0733
00000140: a64a 1933 5c58 e332 ce15 8c32 ac4e eb32
00000150: d1ee 0533 915c da32 3285 4932 00d2 b532
00000160: a4aa 9c32 02e6 8b32 41b6 d832 2399 0133
00000170: e5f6 e832 8050 e632 9d19 bb32 6606 3332
00000180: 84ec c232 2c5c 4833 823f b131 dbce d832
00000190: bff9 a832 7261 2633 9bde 9b32 873e 5d32
000001a0: df29 ca32 c361 a832 80eb 3133 ae1b 1933
000001b0: 8543 6c32 9b09 b532 a96f d632 9a50 3d33
000001c0: 1e6c 2e33 00cc 1832 4122 b132 e02b 9732
000001d0: 040c 0b33 d6c2 f032 4ed8 b732 886e e732
000001e0: dfb7 a032 76ab be32 5040 4332 32f8 3632
000001f0: 1e7c e332 42d5 9232 86d1 9d32 3846 8f32
00000200: eb43 9c32 fd51 0333 33b1 6132 d38d af32
00000210: 67ab 3f32 5e60 eb31 193d cc32 8c18 f932
00000220: a8bf fb32 3cd0 b032 56fe 9c32 283f a732
00000230: 4bf4 ae32 d0a1 5d32 f180 8f32 f325 2a32
00000240: 3b17 6d32 dc41 bd32 80c8 ea32 55a1 0f33
00000250: 8f4d e432 310f 0033 c74c 8b32 382c 8231
00000260: d157 3432 7dcf e832 e5c4 3533 c97d e032
00000270: f19a 5c32 7811 5132 ddc2 5132 3a9d 4632
00000280: 314b 1b32 db7f 8532 84f2 d532 dc0a 7f32
00000290: 957d 6c32 da4f 8732 1897 a332 c31b d632
000002a0: ee7a 1333 9d87 1133 1c51 3232 a83c 1d32
000002b0: 2e18 0433 80d7 4233 2838 0933 a023 c632
000002c0: cb29 ad32 cc24 d431 d977 0932 c944 1c32
000002d0: 8085 6532 639c 7432 2448 9832 575a a932
000002e0: 788c 5732 7e49 7d32 67e9 e932 d8e6 d032
000002f0: bc8b 8832 716d cd32 626f 3532 b167 b432
00000300: 0d7f 0833 62cd c632 4abc ab32 c658 c132
00000310: b045 9732 41c5 6132 36fc 4832 a53c 6e32
00000320: 7483 7b32 984f 6032 ba14 b432 9741 7832
00000330: 872d e032 7e78 1233 5f08 2f33 aff2 b832
00000340: 8522 1a32 ab6d ce31 cfc4 bb32 dac7 2833
00000350: 8494 d632 17da b332 ff37 5d32 36f5 0e32
00000360: e64f b532 b98f c331 eebb a832 e6dd 4f32
00000370: f70c c932 5784 e832 f5a9 c032 b0f0 8732
00000380: 7e16 aa32 f4f7 4733 d243 5e32 254d fc31
00000390: 96ea 5332 1478 b332 a8fc e432 6b85 9232
000003a0: 32f6 9732 3d8a 9932 6954 6032 709c 7b32
000003b0: 40ba 2632 18c4 2b32 841b a632 ee46 b832
000003c0: 952c 9432 7dca 5332 b2e2 b132 751e 3c32
000003d0: 4ade 5933 459f 3433 78f0 1133 b988 2e32
000003e0: fb19 9232 b7ee 0233 12df f732 3981 b732
000003f0: a9c0 c332 152e 4932 622a 5032 f6b5 6032

exp_avg f4 [10]
0.00015412782 0.0011835389 0.0011520747 0.00029130213 0.00023890886 0.0010338738 0.0007588751 0.00013617991
5.7098096e-05 -0.0005878418
00000000: 5f9d 2139 fa20 9b3a 3601 973a e9b9 9839
00000010: 9c83 7a39 0c83 873a 3fef 463a 84cb 0e39
00000020: 9d7c 6f38 6519 1aba

exp_avg_sq f4 [10]
1.3482295e-05 1.28387e-05 8.393452e-06 6.136076e-06 6.031083e-06 6.0371453e-06 4.453525e-06 4.3770815e-06
4.6225596e-06 6.5714466e-06
00000000: 0432 6237 cc65 5737 9ad1 0c37 7ee4 cd36
00000010: 9c5e ca36 af92 ca36 7d6f 9536 d8de 9236
00000020: 7c1b 9b36 4c80 dc36
