experiments/bs_probe/best.ckpt (torch, 349087 bytes, 6 tensors)

weight f4 [10, 2888]
0	0x3d12cd1d	0.035840143
1	0xbd52466b	-0.051336687
2	0xbdceb38c	-0.100928396
3	0xbcecacd9	-0.028891014
4	0x3d929be0	0.07158637
5	0x3cd91bd1	0.026502522
6	0xbc4d26a3	-0.012521419
7	0xbe013718	-0.12618673
8	0xbe0b3e2d	-0.13597937
9	0x3e07c5e1	0.13259079
10	0xbd3ac618	-0.045599073
11	0xbe256bab	-0.16154353
12	0x3e097952	0.13425186
13	0x3df7424b	0.12073191
14	0xbd83731f	-0.06418442
15	0xbe5b1c1c	-0.21397442
16	0xbe58ff79	-0.21191205
17	0xbe1123da	-0.14173833
18	0xbe282cb0	-0.16423297
19	0xbd004a38	-0.03132078
20	0x3d8e8a89	0.06960017
21	0x3cbb3dbd	0.022856588
22	0xbc3338f9	-0.010938876
23	0x3cdb3ff3	0.026763892
24	0xbbf68923	-0.007523672
25	0x3d7ece99	0.062208746
26	0xbc58868f	-0.013215675
27	0x3e02e55d	0.12782808
28	0xbda14d93	-0.07876124
29	0x3b1e02d7	0.002411058
30	0xbcbb45d8	-0.022860453
31	0x3e1a0d46	0.15044126
32	0xbd07113c	-0.03297542
33	0xbda8f45b	-0.08249732
34	0x3d28879b	0.04114495
35	0xbaa9c1a4	-0.0012951386
36	0xbd4807f0	-0.048835695
37	0xbdb5d75a	-0.08878966
38	0xbcd0c82a	-0.02548607
39	0xbd7de22f	-0.061983284
40	0xbd542b6c	-0.051799223
41	0x3cbb148a	0.022836942
42	0xbcf089e7	-0.029362632
43	0xbd63c672	-0.055609174
44	0x3ab30c60	0.0013660304
45	0xbd1d63cf	-0.038425263
46	0x3cca953e	0.024729367
47	0xba413442	-0.0007370153
48	0xbd9e6864	-0.07734755
49	0xbd80f7a2	-0.06297232
50	0x3cfe1064	0.031013675
51	0xbc7d4057	-0.015457234
52	0xbdf70d12	-0.1206304
53	0x3c5a6fe8	0.013332345
54	0xbc24e01a	-0.010063196
55	0x3c8f5e25	0.017500946
56	0xbd26ba73	-0.040705156
57	0xbd99c66b	-0.07508548
58	0x3d096121	0.033539895
59	0x3cae8763	0.021304792
60	0xbc4cbff2	-0.012496935
61	0x3d2e82c0	0.04260516
62	0xbdef0891	-0.11671556
63	0xbdddd1af	-0.108310096
64	0xbd2d2b64	-0.04227771
65	0x3d79459f	0.06085741
66	0xbc80c69d	-0.015719706
67	0x3d03866b	0.032110613
68	0x3c16ddc9	0.009208151
69	0xbe01c7d1	-0.1267388
70	0xbd122e42	-0.035688646
71	0xbdaf4701	-0.08558465
72	0x3d623cf3	0.055233907
73	0xba71cb6e	-0.0009223734
74	0x3c940f0b	0.01807358
75	0xbd282ec2	-0.041060217
76	0xbd9a7e51	-0.07543624
77	0xbe7d97c1	-0.24764921
78	0xbd17996b	-0.037011545
79	0xbe66fa81	-0.22556497
80	0xbe047b3e	-0.12937638
81	0xbd95fb1f	-0.07323288
82	0xbdc2d399	-0.09513015
83	0x3d1c446f	0.0381512
84	0xbbe19482	-0.0068841586
85	0xbd9cc907	-0.076555304
86	0xbe614612	-0.21999386
87	0xbd275fd5	-0.040862877
88	0xbe6cb797	-0.23116909
89	0xbe7610c2	-0.2402983
90	0xbd9bb7c2	-0.076034084
91	0x3c69bb79	0.014265888
92	0x3cfb27fc	0.030658714
93	0x3c525fe0	0.012840241
94	0xbce07876	-0.02740119
95	0x3d44b344	0.048022524
96	0xbc6124ab	-0.0137416525
97	0x3c9742f0	0.018464535
98	0xbd9d060d	-0.0766717
99	0xbdf5e06d	-0.120056964
100	0xbcafae63	-0.021445459
101	0xbd2c28c8	-0.04203108
102	0xbc13bdff	-0.009017467
103	0xbd4d9084	-0.05018665
104	0xbd843d6f	-0.0645703
105	0xbdf7f023	-0.12106349
106	0x3c0e72a7	0.008694327
107	0xbca66a59	-0.020314382
108	0x3e1a1838	0.15048301
109	0x3dd822a0	0.10553479
110	0xbd26b00a	-0.040695228
111	0xbd13a32a	-0.036044277
112	0x3c83e6a8	0.016101196
113	0x3d63237e	0.05545377
114	0xbc7355bf	-0.014851986
115	0xbc1b07fe	-0.009462355
116	0x3d3e5fa5	0.046477932
117	0xbd3c54a3	-0.045979153
118	0xbd4e0057	-0.050293293
119	0x3d5b1681	0.05348826
120	0xbd84ba27	-0.06480818
121	0x3d118452	0.03552658
122	0x3d20030b	0.039065402
123	0xbdf036d1	-0.117292054
124	0x3cfd899e	0.03094941
125	0x3bd66ca8	0.0065437146
126	0xbcb1968e	-0.021678235
127	0xbe345143	-0.17609124
128	0xbdc41c9c	-0.09575769
129	0x3cb406f9	0.021975981
130	0xbe0e8acf	-0.13920139
131	0xbcc55bc9	-0.024091618
132	0xbda9545d	-0.08268044
133	0x3de6ef54	0.11276117
134	0x3b3b1360	0.0028545484
135	0xbdf5a42d	-0.11994205
136	0x3d5bb73f	0.053641554
137	0x3c84ed0d	0.016226316
138	0x3db10faa	0.08645566
139	0xbdc0e68e	-0.09418975
140	0xbd9ae1b5	-0.075625814
141	0x3d6c90b5	0.05775519
142	0xbd28e152	-0.041230507
143	0xbde872ab	-0.11349996
144	0x3d2089c0	0.03919387
145	0xbd8adae6	-0.06780033
146	0xbd23d74e	-0.040000252
147	0xbe1ba95a	-0.15201321
148	0xbc1c9938	-0.009558015
149	0xbd876ddb	-0.0661275
150	0x3cf4e27e	0.029893156
151	0xbe96eb41	-0.2947636
152	0x3c54c166	0.012985563
153	0xbc6cc2e2	-0.014450761
154	0xbe208f83	-0.15679745
155	0xbd4fb247	-0.050707128
156	0xbdec9cae	-0.11553322
157	0x3adba3f9	0.0016757242
158	0xbc8eb237	-0.017418964
159	0xbdb9cb15	-0.09071938
160	0x3d2ee229	0.042696152
161	0xbc87f417	-0.016595883
162	0xbbcb2ef8	-0.0062006675
163	0xbd91c99b	-0.07118531
164	0xbc9aa5f0	-0.018877953
165	0xbda0ac20	-0.0784533
166	0x3b68f981	0.0035549107
167	0x3d8328c7	0.06404262
168	0xbb7e2ac1	-0.0038782808
169	0x3d4660c8	0.04843214
170	0xbdb536f8	-0.08848375
171	0xbe1a7770	-0.15084624
172	0xbdcc78fa	-0.09984012
173	0xbd73957f	-0.059468742
174	0x3c32bffe	0.010910032
175	0x3b9e1756	0.004824559
176	0xbdd3e1ef	-0.10345828
177	0xbe00bd1b	-0.12572138
178	0x3c2f381a	0.010694528
179	0xbc1e121e	-0.009647874
180	0xbdb73d25	-0.08947209
181	0xbcf561e8	-0.029953912
182	0xbd156b9d	-0.03647958
183	0xbdde5dc7	-0.1085773
184	0xbc9e0e0a	-0.019293804
185	0xbd5b5e32	-0.05355663
186	0xbd79d740	-0.060996294
187	0x3d116727	0.035498764
188	0x3c981c07	0.018568052
189	0xbd98df4d	-0.07464466
190	0xbd3db14e	-0.04631167
191	0x3bd579be	0.006514757
192	0x3dd735e9	0.105083294
193	0xbc143c2a	-0.009047547
194	0x3d4f7649	0.050649915
195	0xbe384d15	-0.17998154
196	0xbd215cc7	-0.03939512
197	0x3d1fca85	0.039011497
198	0xbe72d8c4	-0.23715502
199	0xbd8f43dc	-0.06995365
200	0xbd30ffd3	-0.043212723
201	0xbd292844	-0.041298166
202	0xbd178807	-0.03699496
203	0xbd7a7be4	-0.061153308
204	0xbd8662c2	-0.06561805
205	0xbd8e0142	-0.06933834
206	0xbb81c7aa	-0.0039605694
207	0x3d752730	0.059851825
208	0xbd000975	-0.03125902
209	0xbd03dad0	-0.032191098
210	0xbb80bf94	-0.003929088
211	0xbc51f947	-0.01281578
212	0x3d2315ef	0.03981584
213	0x3d05cf1c	0.032668218
214	0xbd78baa3	-0.060724866
215	0xbd2f30d9	-0.042771194
216	0xbe26320e	-0.16230032
217	0xbca96b93	-0.020681178
218	0x3c4f81a3	0.012665185
219	0xbd7642fe	-0.060122482
220	0xbb51e924	-0.0032029832
221	0xbc8ba116	-0.017044585
222	0xbe1f7a1a	-0.15573922
223	0x3ca23373	0.019799924
224	0xbc74d885	-0.0149442
225	0xbd24eb02	-0.040263183
226	0xbcb07a55	-0.021542707
227	0x3d0ad8a8	0.033898026
228	0x3d1622c6	0.036654256
229	0xbe704fcc	-0.2346794
230	0xbdc7a4a5	-0.097482
231	0xbd481a93	-0.04885347
232	0x3c2292d6	0.009922704
233	0x3dc36f11	0.095426686
234	0xbe13fd1b	-0.14452021
235	0xbd50a9f6	-0.050943337
236	0xbe06c8c9	-0.13162531
237	0xbdab63f9	-0.08368678
238	0xbe498b95	-0.19682153
239	0xbe0fe0a5	-0.14050539
240	0x3c217d86	0.009856587
241	0xbd96a560	-0.073557615
242	0x3caf98b6	0.021435123
243	0x3da16e67	0.07882386
244	0x3cdea758	0.027179405
245	0x3c961c2b	0.018323978
246	0xbcabb020	-0.020958006
247	0xbdebbcaf	-0.11510598
248	0xbe0929fd	-0.13394924
249	0xbcb321a4	-0.021866627
250	0x3d5dfc22	0.05419553
251	0xbd4c9645	-0.049947996
252	0xbd961bf8	-0.07329553
253	0x3d4be3de	0.049777858
254	0x3c43924a	0.0119367335
255	0xbd45d066	-0.048294447

bias f4 [10]
0	0xbac345a5	-0.0014898075
1	0xbc588a13	-0.013216513
2	0x3bb4599e	0.0055038473
3	0x3bd6bfe5	0.0065536373
4	0xbb8538a7	-0.0040655914
5	0xbc546b02	-0.012964966
6	0xbb6e61b5	-0.0036374156
7	0xbc92bea2	-0.017913166
8	0x3a098bd5	0.0005246972
9	0xbaa049fc	-0.001222908

exp_avg f4 [10, 2888]
0	0x36c5351f	5.8772416e-06
1	0xb5cb0250	-1.5125352e-06
2	0xb713cbd5	-8.809341e-06
3	0x3713d624	8.811741e-06
4	0xb73698f1	-1.0883655e-05
5	0xb6120925	-2.1761018e-06
6	0xb68bc6f3	-4.1656835e-06
7	0xb70a6a01	-8.250122e-06
8	0xb4992450	-2.8524892e-07
9	0xb6fa6634	-7.4624786e-06
10	0xb6bbb01b	-5.5935357e-06
11	0x36f725ec	7.3655883e-06
12	0xb7bb2841	-2.2310882e-05
13	0xb7bab80f	-2.2258637e-05
14	0x36f23879	7.2187363e-06
15	0x367dceaf	3.7820244e-06
16	0xb62be75a	-2.561565e-06
17	0xb698798e	-4.544104e-06
18	0x35c92757	1.4987116e-06
19	0xb800b4c0	-3.0685915e-05
20	0xb60e31c4	-2.1188616e-06
21	0xb61e3032	-2.3571888e-06
22	0x3786e52d	1.6080763e-05
23	0xb6829943	-3.892144e-06
24	0xb85acd34	-5.216636e-05
25	0xb7d8ddf4	-2.5852562e-05
26	0x3493cd1e	2.7530126e-07
27	0xb6e98bd2	-6.9602183e-06
28	0xb6a975e4	-5.0503168e-06
29	0x36d4065f	6.318834e-06
30	0xb6b4b772	-5.385774e-06
31	0xb68fbc0d	-4.283624e-06
32	0xb75c9f7c	-1.3150155e-05
33	0x3738b69c	1.1009772e-05
34	0xb52c54ac	-6.4198207e-07
35	0x371e608c	9.440013e-06
36	0xb688ba2e	-4.07479e-06
37	0x362f1651	2.6090022e-06
38	0x36455c7c	2.940912e-06
39	0x370e8c06	8.496461e-06
40	0x37e71772	2.7548263e-05
41	0x37877b27	1.6150601e-05
42	0xb6867c88	-4.0080085e-06
43	0x36a6942b	4.9644345e-06
44	0x34fdac74	4.7250398e-07
45	0xb757c242	-1.2860228e-05
46	0x36a8018b	5.00697e-06
47	0x36e02582	6.6800867e-06
48	0x37b49638	2.1527623e-05
49	0x36b3f631	5.363276e-06
50	0xb70e6889	-8.488199e-06
51	0x378eacf5	1.7008259e-05
52	0xb693c5ac	-4.4039534e-06
53	0xb7ed125f	-2.8261156e-05
54	0xb7c12ad2	-2.3027333e-05
55	0x367b9d4c	3.7493473e-06
56	0xb5c28e12	-1.4495474e-06
57	0x3626d0b2	2.4857404e-06
58	0x35cb0674	1.5126557e-06
59	0x376f761d	1.42730105e-05
60	0xb6f48bc8	-7.2880393e-06
61	0x34f83da2	4.6238443e-07
62	0x37034d5a	7.826218e-06
63	0x37164f5a	8.959172e-06
64	0x36e8d7b1	6.9392486e-06
65	0xb779897c	-1.4873567e-05
66	0x3779009d	1.4841699e-05
67	0x370328c4	7.8177e-06
68	0xb74351e3	-1.16419715e-05
69	0x36f10cff	7.1838726e-06
70	0x371fe9f1	9.531607e-06
71	0xb79b781b	-1.8533368e-05
72	0x3772b1d7	1.4465731e-05
73	0x37874aed	1.6128144e-05
74	0xb469aad3	-2.1761961e-07
75	0x373ff533	1.1441577e-05
76	0x36b1093a	5.276085e-06
77	0x37335719	1.068951e-05
78	0xb71cdc4c	-9.349616e-06
79	0x36f100a4	7.1824343e-06
80	0x3617482e	2.2542768e-06
81	0x368e87b8	4.2477295e-06
82	0x34f03755	4.4743743e-07
83	0xb7423fa7	-1.1578121e-05
84	0xb61e7652	-2.3612706e-06
85	0x3686f61c	4.022162e-06
86	0x36ffaf96	7.620033e-06
87	0x3727d464	1.0003427e-05
88	0x36abebea	5.123661e-06
89	0x372f586f	1.0451403e-05
90	0xb7218502	-9.627316e-06
91	0x36a311c5	4.859847e-06
92	0x371cbd89	9.342454e-06
93	0x37134cf1	8.779797e-06
94	0x36b03170	5.250964e-06
95	0x36ddcfe6	6.610516e-06
96	0xb6717ea2	-3.5985508e-06
97	0x37638cac	1.3563007e-05
98	0x37748382	1.4574152e-05
99	0x37756432	1.46264665e-05
100	0xb6a00d6e	-4.769935e-06
101	0x36fce5ec	7.5369517e-06
102	0xb7eae81d	-2.800306e-05
103	0xb765070b	-1.36511035e-05
104	0x32aec3de	2.0345336e-08
105	0x3702c63e	7.794761e-06
106	0xb703f23c	-7.864608e-06
107	0xb699fc78	-4.5891466e-06
108	0x36079701	2.0204463e-06
109	0x37380ee0	1.0970718e-05
110	0x36386b57	2.7480617e-06
111	0x375fd2b4	1.3340894e-05
112	0x36ecd731	7.0583997e-06
113	0xb63cbe1e	-2.8124846e-06
114	0x36e7ff98	6.9140915e-06
115	0x366aa45e	3.4964391e-06
116	0x37551e81	1.2702892e-05
117	0xb6cf2dac	-6.1743976e-06
118	0x36560b42	3.1895038e-06
119	0x35df79b2	1.6650213e-06
120	0x37097e07	8.195179e-06
121	0xb74e62e6	-1.2301583e-05
122	0x35a8e3cf	1.2583276e-06
123	0x3714b400	8.863397e-06
124	0x35ae6acc	1.2995092e-06
125	0x36b01aa6	5.248311e-06
126	0x3697c6a2	4.5232746e-06
127	0xb6bca454	-5.621967e-06
128	0xb687ee5b	-4.0510618e-06
129	0x374d0c7a	1.2221857e-05
130	0xb594e9ae	-1.1094869e-06
131	0xb5eeb69c	-1.7785528e-06
132	0xb6b2fb26	-5.334051e-06
133	0x379d3251	1.8739289e-05
134	0x36de68ba	6.6283073e-06
135	0x37663a36	1.3722622e-05
136	0xb793bd61	-1.7611952e-05
137	0xb7de45a8	-2.6496898e-05
138	0xb77ad5a6	-1.4950905e-05
139	0xb6869a00	-4.011439e-06
140	0x373c6c60	1.1230906e-05
141	0x35f36a55	1.8135858e-06
142	0x36b19a3a	5.2929654e-06
143	0x371104e9	8.643817e-06
144	0x375302b7	1.2577212e-05
145	0xb5fa59c2	-1.8652574e-06
146	0x37873710	1.6118895e-05
147	0x370bdaec	8.336017e-06
148	0x36c28223	5.7968005e-06
149	0x3557d0da	8.039766e-07
150	0x36997fe2	4.574643e-06
151	0x36933467	4.387042e-06
152	0xb730fef6	-1.054978e-05
153	0xb65ac551	-3.2599385e-06
154	0x378ce43b	1.6795579e-05
155	0x359cf1af	1.1693245e-06
156	0xb6718aff	-3.5992705e-06
157	0x37396a40	1.10515975e-05
158	0x36830a5d	3.9053107e-06
159	0x374cd830	1.2209683e-05
160	0x373010af	1.0494302e-05
161	0x370601d4	7.987448e-06
162	0x3783af3d	1.5698019e-05
163	0x36aa099c	5.0675135e-06
164	0x37876470	1.6140024e-05
165	0xb66f32b1	-3.5643282e-06
166	0x36ee1f6b	7.0966103e-06
167	0x370291a8	7.782517e-06
168	0xb6cd10fb	-6.111453e-06
169	0xb65c9d7d	-3.2874225e-06
170	0x36937e2d	4.39563e-06
171	0x3683e348	3.9305633e-06
172	0x36768e33	3.6739627e-06
173	0x3700ccf6	7.677116e-06
174	0xb42464a0	-1.5310297e-07
175	0xb6c609a8	-5.901984e-06
176	0xb6d96f9d	-6.4800975e-06
177	0x370ffb60	8.581992e-06
178	0x34a07161	2.9884816e-07
179	0x372f53fb	1.0450366e-05
180	0x37048813	7.899495e-06
181	0x36bed741	5.6875e-06
182	0x377f3bc4	1.52131e-05
183	0x373f041a	1.1385442e-05
184	0x35df39d7	1.6631628e-06
185	0x36fb28b9	7.4851237e-06
186	0x36e69c49	6.872728e-06
187	0xb709aacb	-8.205602e-06
188	0x36983731	4.536378e-06
189	0x36a30160	4.8579386e-06
190	0xb358288d	-5.03283e-08
191	0xb5d58890	-1.5909482e-06
192	0x35a59ead	1.2339639e-06
193	0x36392d1f	2.7593412e-06
194	0xb5ee178d	-1.7739236e-06
195	0x376708c3	1.3770713e-05
196	0x3654b0f6	3.1693467e-06
197	0x3610e672	2.159181e-06
198	0x36dc62e1	6.568022e-06
199	0x3701d15d	7.737745e-06
200	0x37549da3	1.2672887e-05
201	0x3758ec25	1.2929585e-05
202	0x3765362a	1.3662075e-05
203	0x37214e39	9.61456e-06
204	0x35430009	7.264321e-07
205	0xb607498b	-2.0159375e-06
206	0x3743f486	1.1679838e-05
207	0x36c02900	5.726819e-06
208	0xb3d80a7d	-1.00601916e-07
209	0x36eb0bc3	7.004915e-06
210	0xb6aaf10e	-5.0944573e-06
211	0xb6e9d7e4	-6.969074e-06
212	0x36fa095c	7.45167e-06
213	0xb7f19e07	-2.8803026e-05
214	0xb712c318	-8.747702e-06
215	0x36eb22c3	7.0075926e-06
216	0xb86efa0e	-5.6976503e-05
217	0xb7164daa	-8.958779e-06
218	0xb85032bd	-4.9638318e-05
219	0x34843939	2.462855e-07
220	0x37160d4b	8.943792e-06
221	0x36e8de3a	6.9400094e-06
222	0x36a8ec7f	5.034322e-06
223	0xb69b8ce1	-4.6357604e-06
224	0xb6ef8ee8	-7.1393915e-06
225	0xb733df09	-1.0721161e-05
226	0xb6b2fabf	-5.334004e-06
227	0xb79484ff	-1.7704906e-05
228	0xb576caa6	-9.1937034e-07
229	0x368ff075	4.289725e-06
230	0xb64f63ac	-3.090342e-06
231	0xb65d0146	-3.2932307e-06
232	0xb562e42f	-8.452361e-07
233	0xb788948f	-1.6281641e-05
234	0x36bcc58a	5.625833e-06
235	0xb84de48e	-4.9088667e-05
236	0xb7b4df7b	-2.1561738e-05
237	0xb61da953	-2.3493383e-06
238	0x375902a7	1.29348255e-05
239	0x36f02e92	7.157979e-06
240	0xb7ff4ba0	-3.0433584e-05
241	0x370f57f6	8.543944e-06
242	0xb6008c45	-1.9155134e-06
243	0xb702c7ba	-7.795106e-06
244	0x37eac093	2.7984648e-05
245	0x36d078f0	6.212962e-06
246	0x364029d3	2.8634574e-06
247	0x360ade77	2.0693094e-06
248	0x370882a8	8.1366525e-06
249	0xb7b01103	-2.0988757e-05
250	0xb71cdd04	-9.349784e-06
251	0x376e21aa	1.41937435e-05
252	0xb6db582c	-6.536973e-06
253	0x36fece04	7.5937733e-06
254	0x35cf7b46	1.5458579e-06
255	0x3630f5f6	2.6369212e-06

exp_avg_sq f4 [10, 2888]
0	0x303f173d	6.951842e-10
1	0x30115c3e	5.2881777e-10
2	0x300db0bc	5.1546656e-10
3	0x30310af1	6.4407774e-10
4	0x30892f23	9.981459e-10
5	0x3003e53d	4.798329e-10
6	0x3038ef79	6.727912e-10
7	0x2ff5e526	4.472806e-10
8	0x2f786f96	2.2595112e-10
9	0x30e26ba6	1.647426e-09
10	0x2fe921d5	4.2406492e-10
11	0x2f720d77	2.2014555e-10
12	0x310a74ec	2.0148105e-09
13	0x3105389a	1.9386222e-09
14	0x2fd16caf	3.8094103e-10
15	0x2f73e1eb	2.2180983e-10
16	0x2f9d8c11	2.8657657e-10
17	0x2f86e31a	2.4535823e-10
18	0x2f33e68b	1.636186e-10
19	0x3074042f	8.877263e-10
20	0x3080bfab	9.367701e-10
21	0x30ad4229	1.260621e-09
22	0x30e1bdb2	1.6424819e-09
23	0x30b2b98f	1.3003943e-09
24	0x30b151e3	1.2901719e-09
25	0x307b0d7e	9.133244e-10
26	0x30960ebb	1.0918123e-09
27	0x30e34adc	1.65377e-09
28	0x3097e428	1.1051542e-09
29	0x30575844	7.834198e-10
30	0x301d22c0	5.716565e-10
31	0x310e2505	2.0684763e-09
32	0x30811ef2	9.39478e-10
33	0x305a3d13	7.939473e-10
34	0x30c9ddf9	1.4687763e-09
35	0x3087109e	9.827266e-10
36	0x2f9f2f1f	2.8955413e-10
37	0x2f5b4bed	1.9944908e-10
38	0x3066a706	8.3910867e-10
39	0x304e2361	7.499264e-10
40	0x3164d482	3.3299163e-09
41	0x30f178ba	1.756937e-09
42	0x30bf3c29	1.3914178e-09
43	0x315d4163	3.21969e-09
44	0x306144da	8.1952367e-10
45	0x30f64add	1.7920133e-09
46	0x30fd6f1f	1.8439755e-09
47	0x307e1514	9.2434616e-10
48	0x30b08e5f	1.284615e-09
49	0x30ff8f0a	1.8594346e-09
50	0x310e1a65	2.0678723e-09
51	0x30e3cb23	1.6574159e-09
52	0x30a4f995	1.2003506e-09
53	0x30efa6e0	1.7436967e-09
54	0x31017e40	1.8843735e-09
55	0x3084e5ee	9.669614e-10
56	0x3013c2db	5.3755195e-10
57	0x2fb62654	3.313284e-10
58	0x307e7905	9.257664e-10
59	0x30eb9050	1.7139516e-09
60	0x309d1166	1.1428198e-09
61	0x30fb8899	1.8301477e-09
62	0x309c2419	1.1360753e-09
63	0x30b81f9a	1.3396744e-09
64	0x30c05de7	1.3996527e-09
65	0x30ee00d3	1.7317013e-09
66	0x30cad0ff	1.4756835e-09
67	0x30bda624	1.379878e-09
68	0x30bebb08	1.3877477e-09
69	0x305c4eea	8.014768e-10
70	0x3087633e	9.850749e-10
71	0x30689305	8.4610036e-10
72	0x30c9af0e	1.4674428e-09
73	0x30a4d5bc	1.1993317e-09
74	0x302ff851	6.401751e-10
75	0x30215b4c	5.87012e-10
76	0x2fa131b0	2.9321034e-10
77	0x2fd5ee01	3.8913586e-10
78	0x30928718	1.0661294e-09
79	0x308ed8ab	1.039344e-09
80	0x30a18518	1.1752119e-09
81	0x3083340b	9.546296e-10
82	0x3081dc78	9.448646e-10
83	0x30e7fa36	1.6878576e-09
84	0x30a3249a	1.1870214e-09
85	0x3062d1b6	8.251634e-10
86	0x2fc32b87	3.5501221e-10
87	0x3052c774	7.6680995e-10
88	0x3001bc07	4.719713e-10
89	0x2fe2e7eb	4.1273948e-10
90	0x303d9075	6.8963085e-10
91	0x308ed1ed	1.0391524e-09
92	0x30c1aef1	1.409232e-09
93	0x30b41b9a	1.3104569e-09
94	0x30108e38	5.2589e-10
95	0x30536f67	7.6919665e-10
96	0x30ee8978	1.735585e-09
97	0x3101baf9	1.8878252e-09
98	0x30a41cf7	1.1940803e-09
99	0x309c3176	1.1364552e-09
100	0x306d4cb5	8.6329105e-10
101	0x30803b58	9.330092e-10
102	0x3089360c	9.983423e-10
103	0x3036fa8d	6.656727e-10
104	0x30791ac2	9.06237e-10
105	0x301e3992	5.756188e-10
106	0x3081e5c1	9.451285e-10
107	0x3063e079	8.2901114e-10
108	0x30bd96ad	1.3794385e-09
109	0x310465f0	1.9266473e-09
110	0x3099e38e	1.119689e-09
111	0x309ffabf	1.1640039e-09
112	0x30852e03	9.690101e-10
113	0x302dd7c0	6.324363e-10
114	0x301a3b2a	5.610895e-10
115	0x302670ad	6.055057e-10
116	0x30c9661b	1.4653695e-09
117	0x30a83c93	1.2240825e-09
118	0x3098ee0b	1.1127111e-09
119	0x30bf231d	1.3907059e-09
120	0x307995f1	9.079875e-10
121	0x308347f6	9.551957e-10
122	0x3072e3bf	8.8362734e-10
123	0x303842db	6.703382e-10
124	0x30883d44	9.912715e-10
125	0x3099cf9f	1.1191225e-09
126	0x309ad9de	1.1266896e-09
127	0x3036414b	6.6304e-10
128	0x3043fe4f	7.130198e-10
129	0x30b8dc24	1.345033e-09
130	0x309e50b6	1.1518952e-09
131	0x30669052	8.3878604e-10
132	0x2ffdbd6d	4.6155027e-10
133	0x308b0f80	1.0117986e-09
134	0x304bccad	7.414183e-10
135	0x307f9358	9.297785e-10
136	0x311da2ea	2.2939113e-09
137	0x3099d4f6	1.1192742e-09
138	0x30d1b7da	1.5259005e-09
139	0x30696d9c	8.492067e-10
140	0x3036d0b3	6.6507794e-10
141	0x3086e886	9.81587e-10
142	0x30571c2d	7.8256585e-10
143	0x3026ee8f	6.072946e-10
144	0x30889362	9.937191e-10
145	0x3057c48c	7.8495854e-10
146	0x3077ba60	9.012293e-10
147	0x3030043f	6.403446e-10
148	0x3090e28a	1.0541765e-09
149	0x30ebf86d	1.7169107e-09
150	0x308c457b	1.0206088e-09
151	0x2f1c9443	1.424079e-10
152	0x303d2f3c	6.8824924e-10
153	0x306b6add	8.5644364e-10
154	0x30792926	9.064415e-10
155	0x307a4e14	9.1060426e-10
156	0x3062b0c1	8.2469503e-10
157	0x30701a5f	8.7348967e-10
158	0x303cc18a	6.8669037e-10
159	0x2fde15be	4.0397014e-10
160	0x30991d33	1.1140514e-09
161	0x30591c4d	7.898436e-10
162	0x308111b7	9.39102e-10
163	0x300187a3	4.712268e-10
164	0x3047ffa3	7.275906e-10
165	0x3055b425	7.774495e-10
166	0x308c41f9	1.0205091e-09
167	0x30dc9a53	1.6050968e-09
168	0x3106a75b	1.9594697e-09
169	0x30a2557d	1.1811349e-09
170	0x300c649a	5.1074667e-10
171	0x2f991cd8	2.7851033e-10
172	0x3037dade	6.688604e-10
173	0x30865f09	9.776794e-10
174	0x3074c966	8.905289e-10
175	0x30894661	9.988065e-10
176	0x3066d059	8.396959e-10
177	0x2fe9fbc8	4.2561354e-10
178	0x30790aa9	9.060082e-10
179	0x303906a5	6.731205e-10
180	0x30317b29	6.4567246e-10
181	0x301b1b1e	5.642721e-10
182	0x30502ade	7.5730877e-10
183	0x301d18a7	5.71513e-10
184	0x30604506	8.1588813e-10
185	0x3072591b	8.8165714e-10
186	0x308957de	9.993035e-10
187	0x30bb4070	1.3624355e-09
188	0x302b2252	6.225821e-10
189	0x2fd77665	3.9192397e-10
190	0x2f980e7a	2.7658925e-10
191	0x305bedcd	8.000967e-10
192	0x31053a2d	1.9387116e-09
193	0x30c0e55a	1.4035024e-09
194	0x30aa13ee	1.2374792e-09
195	0x2fae9034	3.1752878e-10
196	0x300b4d59	5.0677823e-10
197	0x305f7943	8.129925e-10
198	0x30123809	5.319412e-10
199	0x301113fe	5.2779103e-10
200	0x304e3fba	7.5032924e-10
201	0x300f7187	5.218443e-10
202	0x3041db3e	7.0524553e-10
203	0x304a09ef	7.350129e-10
204	0x303c3156	6.846411e-10
205	0x3030d549	6.4331523e-10
206	0x30fcbccf	1.8389076e-09
207	0x30c39086	1.4229193e-09
208	0x2ff674ec	4.4830217e-10
209	0x2fd6a487	3.9043277e-10
210	0x3072b31f	8.8293634e-10
211	0x30bb8257	1.3643086e-09
212	0x30cad509	1.4757983e-09
213	0x30babaee	1.358641e-09
214	0x307259ba	8.8166596e-10
215	0x305dd81d	8.0706447e-10
216	0x30357488	6.601302e-10
217	0x302e36b1	6.337855e-10
218	0x3054534b	7.7243517e-10
219	0x30292ea2	6.154811e-10
220	0x3051cb08	7.632228e-10
221	0x302f2bb4	6.3726735e-10
222	0x300c6e26	5.1088234e-10
223	0x3085c518	9.733041e-10
224	0x306fb48d	8.720427e-10
225	0x30d0e6e0	1.519961e-09
226	0x2feca589	4.304577e-10
227	0x304156b4	7.0336204e-10
228	0x301860e0	5.5434946e-10
229	0x2feb6ab9	4.2822082e-10
230	0x3083f4e0	9.601102e-10
231	0x308f7d23	1.0440185e-09
232	0x3093c759	1.0752316e-09
233	0x30e7a756	1.6855022e-09
234	0x2ff25b39	4.408436e-10
235	0x308ae6bb	1.0106399e-09
236	0x2ff317e3	4.4218415e-10
237	0x3001d305	4.7229803e-10
238	0x2fe2fd2e	4.1289056e-10
239	0x3020bf1a	5.847923e-10
240	0x308389a5	9.570625e-10
241	0x301dcbcd	5.7405886e-10
242	0x306e9145	8.6790336e-10
243	0x310fa9da	2.0905788e-09
244	0x30edcc28	1.7302044e-09
245	0x30a2b088	1.1837225e-09
246	0x2fc727b8	3.622611e-10
247	0x2f9b0d1d	2.8203653e-10
248	0x303c23b5	6.8444744e-10
249	0x3109405f	1.9972715e-09
250	0x30c9cdb5	1.468314e-09
251	0x3088ca6c	9.952834e-10
252	0x305f38e3	8.120777e-10
253	0x30956011	1.0868481e-09
254	0x30061d24	4.879033e-10
255	0x302694cf	6.060192e-10

exp_avg f4 [10]
0	0x3985a1a8	0.0002548818
1	0xb9aa4b88	-0.00032481202
2	0x3920d24a	0.00015337128
3	0xb8f2f0fa	-0.000115843446
4	0x39305ebb	0.00016819958
5	0xb8d1aecf	-9.998457e-05
6	0xb8929ed6	-6.991408e-05
7	0xb7f277f2	-2.8904502e-05
8	0x38f6dac2	0.00011770941
9	0x398694bf	0.00025669296

exp_avg_sq f4 [10]
0	0x3633b1d7	2.6776595e-06
1	0x362a63a8	2.5389982e-06
2	0x361b9884	2.3185576e-06
3	0x3636d862	2.7246065e-06
4	0x362ab10f	2.5435036e-06
5	0x36269933	2.4825101e-06
6	0x36421fbd	2.8926727e-06
7	0x361578fe	2.2273157e-06
8	0x364ba098	3.0342835e-06
9	0x360f98c7	2.1397589e-06
