experiments/bs_probe/epoch1.ckpt (torch, 349087 bytes, 6 tensors)

weight f4 [10, 2888]
000000 2b ce 8f 3d 94 99 45 be 92 42 88 3c 45 d6 b0 bd
       0.07021745 -0.19296867 0.016633306 -0.08634619
000010 be 52 db 3d 12 03 a2 bd 84 fc e3 bc 95 fe 9b bd
       0.10709141 -0.07910742 -0.02783037 -0.07616917
000020 a7 01 48 3d 52 63 37 be f6 05 b5 bb 55 1a 8d 3e
       0.0488297 -0.17908981 -0.0055243922 0.27559152
000030 98 53 ac bd cf 12 32 3c 66 85 08 bd 5b 7b 2f bd
       -0.08414382 0.010868742 -0.033330344 -0.04284225
000040 5f 53 a5 3d 3f 85 8e bd 16 42 53 3d 54 0e d8 bc
       0.080725424 -0.069590084 0.051576696 -0.02637402
000050 04 9b a6 3d 29 e5 13 3c b8 ba 01 bd c6 f5 50 3d
       0.08135036 0.009026804 -0.03167221 0.051015638
000060 81 b8 02 bd ff 6e 07 be 4a 1e c8 bb 84 fd 82 3d
       -0.031914238 -0.13225935 -0.0061071264 0.063960105
000070 0e 2d c7 bd 45 54 dc bc 49 ad 5f 3d b5 91 09 bd
       -0.097253904 -0.026895652 0.054608617 -0.033586223
000080 7d f4 9e 3c 44 12 e3 bd ef 23 5c be 31 1b d2 bc
       0.01940369 -0.11087468 -0.21498083 -0.025647731
000090 88 c8 9c 3d 60 a3 83 be e1 0b db bc 37 d3 af bd
       0.07655436 -0.25710583 -0.026739063 -0.08585208
0000a0 21 e4 3e 3d 1a 82 a7 3d 5a cc ce bd 36 e3 9f 3d
       0.04660428 0.08179112 -0.10097571 0.07807009
0000b0 2d ac 9b bc 8c b0 a0 bd e2 b2 2f 3e a5 32 08 be
       -0.019002998 -0.07846174 0.17158082 -0.1330057
0000c0 91 bb ee bd 92 14 bc 3c 97 7c df 3d 7f 8a 69 3b
       -0.11656869 0.022959027 0.109124355 0.0035635529
0000d0 8f e5 ca bd 51 25 05 3d 54 93 10 3d 12 37 9c 3b
       -0.09907066 0.03250629 0.035296753 0.004767307
0000e0 3b 48 0b be 12 d6 c1 be c9 0f bf 3c f6 6e 1d 3e
       -0.13601772 -0.37858635 0.023322957 0.1537436
0000f0 2b eb 21 3e 27 2d 8b 3d f7 f2 42 3d 87 dc 99 bd
       0.15812366 0.067957215 0.04759499 -0.075127654
000100 a2 3e e8 3d 33 8e 16 bb 3f 82 83 bd 81 71 da bd
       0.11340071 -0.002297294 -0.06421327 -0.106661804
000110 e1 4a bb 3d 22 30 a4 bd be 6e f4 bc 39 7a 57 be
       0.091451414 -0.08016993 -0.029837962 -0.21042718
000120 76 39 1a 3c d1 13 93 39 a0 0e 75 3d b6 10 fd 3c
       0.009413114 0.0002805279 0.0598284 0.030891757
000130 c1 22 c6 3c d8 57 fd bd 2c d5 46 be 40 96 c3 3d
       0.024186494 -0.123702705 -0.19417256 0.09550142
000140 95 6a df bc 90 c3 58 bd 69 e7 a6 bd 50 81 d3 3d
       -0.027272502 -0.052920878 -0.08149607 0.10327399
000150 c4 25 38 3e 59 53 c0 3d 7a 2d c3 be 22 2b 39 3d
       0.17983156 0.09390897 -0.38120633 0.04520715
000160 04 1f 88 bd 29 13 49 be c9 cc 72 bc f2 90 c5 3d
       -0.06646541 -0.19636215 -0.014819332 0.09646787
000170 76 86 0a be d4 75 e0 3d 94 a9 8c 3d c7 e4 fe bd
       -0.13527855 0.10959974 0.06868282 -0.124459796
000180 03 e0 4d 3d 80 fb c9 3d 0a 2e e8 be 88 2d 0e 3b
       0.050262462 0.09862423 -0.45347625 0.002169462
000190 d3 79 4d be d0 a0 43 3e a6 87 0a be da 9f 50 be
       -0.20066004 0.19104314 -0.13528308 -0.20373479
0001a0 e3 e0 87 3d df ef 9b bd 8a 29 84 3e 2a 07 09 3e
       0.066346906 -0.07614111 0.25812942 0.13381639
0001b0 ea fe cc bd 11 22 2a bd 83 f6 ee bd d5 71 e9 bd
       -0.100095585 -0.041536395 -0.11668112 -0.11398665
0001c0 2b 8d 1e 3e 73 fe a2 3b 4c 17 0c 3e 2d dd b2 3c
       0.15483539 0.0049741804 0.13680762 0.02183398
0001d0 bb 31 45 3e 17 f5 f9 3d 0f ad 37 3d 10 07 52 3d
       0.19257252 0.1220495 0.044842776 0.051276267
0001e0 61 3f 8b bd cf 66 4e bd 08 f0 34 be 27 04 64 be
       -0.06799198 -0.050391015 -0.1766969 -0.22267209
0001f0 de 8f f5 3d 01 53 53 3b 43 a3 d4 bd 9c fc 16 3d
       0.11990331 0.003224552 -0.10382702 0.036862
000200 c8 50 c8 bd 83 fb de bd 0e 7c 45 bd 24 b4 33 3d
       -0.09781033 -0.10887816 -0.04821401 0.043872967
000210 1f a9 ae bd e6 0d 6a be 91 90 50 3d aa 85 f3 bc
       -0.08528351 -0.22856864 0.05091912 -0.029726822
000220 2c 40 8f 3c ab fd 7a bc 4d 48 0f bc 60 3f c5 bd
       0.017486654 -0.015319268 -0.008745265 -0.096312284
000230 b5 bf e3 3d db 7f dc 3c 96 e7 2d 3d aa dc 49 be
       0.111205496 0.026916435 0.042457186 -0.19713083
000240 43 45 31 be 9f 68 d0 3d 0d 7f 4b bd c9 10 0c 3e
       -0.17311577 0.10176205 -0.049681712 0.13678278
000250 39 27 d7 bb 19 54 40 bc 21 d5 09 3c dc 4a 8e be
       -0.006565955 -0.0117388 0.00841263 -0.27791488
000260 21 3e e4 bd c5 35 1b bd de 17 04 3c 15 31 35 3c
       -0.11144663 -0.037893075 0.008062331 0.011059065
000270 2c 43 f7 bd 19 d0 44 bd 5b 1f aa 3b 10 5b 04 be
       -0.12073359 -0.04805002 0.005191726 -0.12925363
000280 2a 9b 37 be 71 8e 06 3d 20 f5 cf 3d 7d 87 a3 bd
       -0.17930284 0.032850686 0.10154176 -0.07984827
000290 3b fc 33 be cc fd b2 bd 4a d7 53 bd 33 20 aa bd
       -0.17576687 -0.08739814 -0.051718988 -0.08306923
0002a0 6b 74 d8 3c 62 ba 75 3e fc dc a7 bd e0 4f 38 be
       0.0264227 0.2399688 -0.08196446 -0.1799922
0002b0 97 87 15 3d 38 dc 0e 3e c7 ec d1 bd 09 35 2f bd
       0.03650626 0.13951194 -0.1025024 -0.042775188
0002c0 32 3f b7 bc e0 b0 98 be 99 41 74 be 31 d9 16 be
       -0.022369001 -0.29822445 -0.23853149 -0.1473129
0002d0 e9 a4 0f be 23 52 19 bd 35 e8 31 be ee a7 0f 3d
       -0.14027752 -0.037431847 -0.17373736 0.03507226
0002e0 2b 49 96 be ad 3e a0 be 0a 1c 8a bd 91 d7 c8 bd
       -0.29352698 -0.31297818 -0.06743629 -0.09806741
0002f0 f5 1a 76 be 73 76 b8 bd e9 f8 a8 bd f2 8f 83 bc
       -0.24033721 -0.090069674 -0.08250601 -0.01605985
000300 85 19 cc 3c 75 07 f0 bd 96 ac 9c 3c 2d 13 a6 3d
       0.024914512 -0.11720172 0.019125264 0.08109126
000310 c2 7f af bd 62 bf c3 bd 92 58 fe bd 0d 84 8e bd
       -0.0856929 -0.09557988 -0.12419237 -0.069587804
000320 99 41 62 bd 21 2a 36 bd 8b 8a 1b 3d 39 8a 7c bc
       -0.05523834 -0.04447377 0.03797392 -0.015413814
000330 2a 84 2c 3d 3f fe 14 3e cd 97 40 3d 1f f4 3e bc
       0.04211823 0.14550112 0.04701977 -0.011654883
000340 a3 d2 17 be f0 1b 0b 3c e6 45 ea 3d 61 68 5b 3d
       -0.14826445 0.008490548 0.11439113 0.05356634
000350 b7 fa cd bc 7f c8 82 bd 9d 0f 6e be d6 2d bf bd
       -0.025143964 -0.06385898 -0.23248143 -0.093349144
000360 ec 46 d3 3d 77 d1 0b be e0 cc af bc d7 3b 26 bd
       0.10316262 -0.13654123 -0.021459997 -0.04058441
000370 c6 c2 09 3d 7f 00 70 bc 83 6d 04 bc 7b 75 a9 bd
       0.033633016 -0.014648556 -0.00808275 -0.08274361
000380 ca 12 9a bc f0 3e ed 3d 35 07 27 bd 45 d8 1a be
       -0.018807787 0.1158427 -0.040778358 -0.15121563
000390 2b 70 a7 3c 9e c5 09 bc 75 11 18 3d 9c 49 9b bd
       0.020439228 -0.008408932 0.037126023 -0.07582399
0003a0 f9 49 91 3d 45 7d cc 3a ab 8e 74 3d d2 c0 03 be
       0.07094187 0.0015601298 0.05970637 -0.12866524
0003b0 59 15 e0 bd 18 5b 42 be e7 ab fb 3d f6 08 2d 3d
       -0.10941572 -0.18980062 0.12288647 0.042244874
0003c0 4d 53 c9 ba 92 2c 63 be 17 c5 0b bd f4 f7 b0 be
       -0.0015359909 -0.22184971 -0.034123506 -0.34564173
0003d0 2b 18 0c 3e 84 5e ba 3d 99 34 8f 3d 6e 60 54 3c
       0.13681094 0.09100059 0.06992454 0.012962444
0003e0 33 8e 9a bd 21 18 c8 bd 25 74 9b 3c b6 a8 a2 3d
       -0.075466536 -0.09770227 0.01897628 0.07942335
0003f0 a5 79 50 3d 12 5c a5 bd 61 04 3e be b1 f6 4f be
       0.05089726 -0.08074202 -0.18556358 -0.20308949

bias f4 [10]
000000 0d 14 56 bc a4 b1 c6 39 01 7e 59 bc c9 8d 88 bc
       -0.013066304 0.00037897856 -0.013274671 -0.01666917
000010 dd 9f 27 3c 1c f0 93 bc 52 e9 9b bc d4 2a d4 bc
       0.0102309855 -0.018058829 -0.019032154 -0.025899328
000020 cd 74 1a 3c b6 50 54 bc
       0.009427262 -0.012958696

exp_avg f4 [10, 2888]
000000 9e 3e 1b 36 bc 76 da 36 7b 3b 02 38 c9 d4 24 37
       2.3133248e-06 6.510729e-06 3.104981e-05 9.824705e-06
000010 1c e0 67 b7 8d 91 78 36 a4 0a cb 35 57 56 39 37
       -1.38208525e-05 3.7039601e-06 1.5127775e-06 1.1046962e-05
000020 4d 17 f3 33 0d 01 5e 37 4f 98 d5 b6 08 8c 3d b7
       1.1319808e-07 1.3232476e-05 -6.3656257e-06 -1.1297881e-05
000030 da 3c ae b4 1f 86 54 b8 c5 43 b8 34 c2 86 86 35
       -3.24543e-07 -5.066965e-05 3.432198e-07 1.0022998e-06
000040 77 57 68 b6 ea 11 13 37 23 7a 6a 35 4b 7e 43 36
       -3.4621605e-06 8.766054e-06 8.7349525e-07 2.9130777e-06
000050 d6 89 12 b6 c4 09 05 37 e8 a1 e0 37 3f 4b 50 b7
       -2.1835926e-06 7.9296915e-06 2.6778274e-05 -1.2415286e-05
000060 ae 93 ce b6 1c 93 a3 37 09 fa 87 36 d3 6f 0a b7
       -6.1564706e-06 1.9499617e-05 4.0524214e-06 -8.251477e-06
000070 88 14 33 37 fe e1 de 36 2f 09 1a b7 5c 02 48 36
       1.0674012e-05 6.6424245e-06 -9.1812535e-06 2.9803696e-06
000080 33 4c f6 37 3c 7d 8f 37 a6 b3 03 36 6e 2e f9 36
       2.9360968e-05 1.7105245e-05 1.962509e-06 7.4261834e-06
000090 54 3f 29 37 03 c7 a0 36 96 a2 f6 35 79 e1 89 b7
       1.008793e-05 4.7915396e-06 1.8375747e-06 -1.6436667e-05
0000a0 d3 b5 9a b7 f6 62 be 37 07 3e 25 b7 af eb 84 37
       -1.84429e-05 2.2695847e-05 -9.849208e-06 1.5845375e-05
0000b0 a8 bc 89 b7 d1 0e b2 35 03 f0 5c 37 ca 30 b9 37
       -1.6419523e-05 1.3266346e-06 1.3168904e-05 2.2076438e-05
0000c0 2d 15 01 b6 a0 11 e1 b6 96 c8 8f 37 7e e7 c3 b7
       -1.9234824e-06 -6.7075744e-06 1.7140334e-05 -2.3353608e-05
0000d0 5d eb 82 38 8a 4a 18 38 36 c8 ce 37 69 c7 e7 b7
       6.242723e-05 3.6309044e-05 2.4650344e-05 -2.7630203e-05
0000e0 5f 07 2b b7 54 89 62 36 96 96 29 38 28 fb 81 36
       -1.01941105e-05 3.375656e-06 4.0432984e-05 3.873738e-06
0000f0 36 91 38 37 b0 38 81 b8 61 34 81 37 f3 d9 f7 b7
       1.1001064e-05 -6.161758e-05 1.540239e-05 -2.9546185e-05
000100 79 d3 aa 35 e1 b0 ee 36 b6 ec c1 b6 5e 2e 8c 35
       1.2727534e-06 7.113544e-06 -5.779405e-06 1.0444307e-06
000110 e3 9d 23 b8 32 2d 84 b8 74 c9 1f 37 97 de 64 37
       -3.9009272e-05 -6.302669e-05 9.524043e-06 1.3641685e-05
000120 df f2 8e 37 29 4e e6 36 d7 13 82 36 b3 aa 6f b8
       1.7040815e-05 6.863633e-06 3.8766116e-06 -5.7141016e-05
000130 14 1e 9e 36 d5 02 07 37 b0 8c 7b 37 5b 3c 70 37
       4.7122685e-06 8.047286e-06 1.4993522e-05 1.4319167e-05
000140 f8 29 95 37 0a c0 86 b8 c4 ca 9c b8 07 31 4b b8
       1.7781727e-05 -6.425388e-05 -7.476428e-05 -4.8444632e-05
000150 aa 04 33 37 73 8f ca 36 11 09 5a 36 45 e6 2f 38
       1.0670317e-05 6.036769e-06 3.2489809e-06 4.1937707e-05
000160 27 34 57 b8 48 f5 90 36 88 95 b7 35 83 80 06 37
       -5.1308565e-05 4.320089e-06 1.3678082e-06 8.016944e-06
000170 56 08 34 b6 74 38 93 37 76 10 70 37 17 c6 8d 35
       -2.6826942e-06 1.7550054e-05 1.4308947e-05 1.056297e-06
000180 35 b0 04 37 44 00 49 37 c4 56 17 37 1c 73 08 35
       7.9088395e-06 1.1980595e-05 9.020503e-06 5.0831454e-07
000190 70 e7 6a 37 66 ad dd 37 a7 14 ab 37 03 a7 48 37
       1.4001373e-05 2.6425998e-05 2.0394406e-05 1.1959814e-05
0001a0 78 d2 a7 37 a9 4b 71 b5 fe 9f 11 37 e6 78 f1 b7
       2.0005959e-05 -8.9889596e-07 8.679925e-06 -2.8785737e-05
0001b0 ef 6d 18 37 3a 93 1c 35 cb 53 bb 37 ae f8 79 37
       9.085502e-06 5.832877e-07 2.2331156e-05 1.4899457e-05
0001c0 90 85 4f 38 1d ae 3a 35 f7 71 89 37 23 2b b1 b5
       4.9477036e-05 6.954377e-07 1.6384742e-05 -1.3200082e-06
0001d0 a9 7c f8 36 14 14 87 b7 8f fc e9 37 02 a3 cf 37
       7.4054883e-06 -1.6102604e-05 2.7893371e-05 2.475223e-05
0001e0 5a 89 c5 36 b9 83 07 36 c3 e1 76 35 01 95 ab 37
       5.8870473e-06 2.019324e-06 9.197067e-07 2.0454174e-05
0001f0 7e c4 c0 36 aa c4 e1 b7 fe cb 1b 37 e7 33 17 b8
       5.7449206e-06 -2.6913669e-05 9.286216e-06 -3.6049543e-05
000200 b2 cc 25 37 67 9d 38 b4 83 92 c1 36 d0 eb be 36
       9.882426e-06 -1.7193598e-07 5.7689044e-06 5.6898934e-06
000210 28 3d 23 37 dc 5a a6 36 1f e2 f9 36 a4 bb 1d 37
       9.729796e-06 4.957763e-06 7.4471022e-06 9.401618e-06
000220 df 22 1a b7 1b 62 0c 36 3d 43 d7 37 dd 9b fe 35
       -9.187234e-06 2.091873e-06 2.5661308e-05 1.8969837e-06
000230 3e 7f d9 36 75 ca 1f 33 d3 c1 9a 36 4f 13 8a 36
       6.481917e-06 3.7204206e-08 4.6121218e-06 4.1149683e-06
000240 01 68 58 37 41 39 8f 36 fa e7 df 37 e3 35 b2 b6
       1.2898819e-05 4.2683973e-06 2.6691694e-05 -5.3110866e-06
000250 ba 81 dd b7 4d 95 c7 37 8f 83 9b 37 0e 9a 13 37
       -2.6405662e-05 2.3792172e-05 1.8538702e-05 8.797751e-06
000260 bc 8f db 36 f8 8e 66 b6 b9 5a 97 37 37 21 d6 37
       6.5434415e-06 -3.435589e-06 1.8042849e-05 2.5526255e-05
000270 e0 ae 22 37 73 7a 6c 35 c9 07 0f 37 4f 24 ad 34
       9.696669e-06 8.809504e-07 8.525277e-06 3.225018e-07
000280 81 a2 e8 36 08 df 94 37 33 32 f2 37 6f 78 57 36
       6.9330567e-06 1.7746832e-05 2.8872024e-05 3.2107598e-06
000290 81 43 fb 36 43 7b f2 36 9d ae 1f 37 d2 ea b9 b7
       7.4882414e-06 7.2265116e-06 9.517794e-06 -2.2163065e-05
0002a0 ea 53 87 37 41 59 8f 36 50 46 1f 37 e6 0f 0e b8
       1.613233e-05 4.2721226e-06 9.493509e-06 -3.3870245e-05
0002b0 a3 c6 e8 36 42 0f a6 b7 4d f4 06 38 45 7c ab 36
       6.937263e-06 -1.9795847e-05 3.2175612e-05 5.110664e-06
0002c0 f9 19 05 37 6c 41 00 35 70 18 49 36 0e 56 76 36
       7.933465e-06 4.777892e-07 2.9965558e-06 3.6706947e-06
0002d0 81 bc 1f 37 16 7e 1b 37 4b b6 41 37 ed 7b 2e b7
       9.521028e-06 9.268077e-06 1.154614e-05 -1.0400062e-05
0002e0 3f 60 80 37 c6 0a 5d 37 8f bf 63 37 9d 0e 68 37
       1.5303607e-05 1.3175135e-05 1.3574855e-05 1.383168e-05
0002f0 f4 8a ec 36 ef fa 09 37 b3 77 11 36 dc 14 a3 36
       7.0495244e-06 8.224261e-06 2.1676358e-06 4.860207e-06
000300 e2 94 ae 37 33 b0 af 37 ad 3a 8f 37 25 22 b3 b6
       2.0811745e-05 2.0943675e-05 1.7074251e-05 -5.3385907e-06
000310 7a 7b 21 38 38 3d 79 37 ea 58 0b b6 2e 39 12 b6
       3.8500388e-05 1.485581e-05 -2.0764369e-06 -2.1788978e-06
000320 1e 4e c2 b7 b2 4c c8 35 d8 0f 23 37 31 ed 85 37
       -2.3162978e-05 1.4923482e-06 9.719246e-06 1.5965286e-05
000330 83 68 49 37 8d fe c1 37 bb 8b 49 37 34 74 0e 36
       1.2004867e-05 2.3125927e-05 1.2013067e-05 2.1227288e-06
000340 1a 8b 9b 35 d0 e8 59 35 39 6a 91 b8 5f 4f 0f 38
       1.1588884e-06 8.1177586e-07 -6.933924e-05 3.4167777e-05
000350 ae d6 06 38 40 31 a5 b5 7d 8f 13 b8 b4 9b 3a 37
       3.2148026e-05 -1.2307792e-06 -3.5181165e-05 1.1122716e-05
000360 01 58 d2 37 44 1d 9a b7 0a 53 f8 37 83 00 02 37
       2.507493e-05 -1.8371858e-05 2.9602572e-05 7.748723e-06
000370 7e f3 21 36 5f 05 a5 34 72 ba e8 37 15 a4 56 36
       2.41326e-06 3.0737553e-07 2.7743376e-05 3.1983993e-06
000380 62 a4 81 37 8c c2 ea 36 c6 d6 9c 36 f1 f2 83 30
       1.5454545e-05 6.9963917e-06 4.674165e-06 9.600553e-10
000390 cd 4d a0 37 54 73 1f 37 ec c9 45 b7 ea 77 11 38
       1.9109715e-05 9.50399e-06 -1.1789129e-05 3.4682373e-05
0003a0 ad e8 af 37 d1 48 a2 34 9a 7d 85 35 92 55 2c 37
       2.0969974e-05 3.0227832e-07 9.945827e-07 1.0271922e-05
0003b0 af be b6 36 c4 f8 ea 36 27 3c 7c 37 bd b4 c5 36
       5.446221e-06 7.0027036e-06 1.5034376e-05 5.892098e-06
0003c0 b4 29 55 b8 86 0b 75 36 99 77 46 36 37 ca cb b7
       -5.0821996e-05 3.6514552e-06 2.9573914e-06 -2.429365e-05
0003d0 fc 9b d5 36 80 d3 60 b8 b1 cb c4 b7 f0 e6 0f b8
       6.3660536e-06 -5.3602736e-05 -2.3459872e-05 -3.4308934e-05
0003e0 5c 49 21 37 03 05 b8 37 b0 ee e8 37 e4 f7 ca 35
       9.613428e-06 2.1936843e-05 2.7767703e-05 1.5122318e-06
0003f0 4e 7b 89 37 53 a0 c6 36 ea 68 76 37 1e 9d d5 36
       1.638909e-05 5.919524e-06 1.468717e-05 6.3661855e-06

exp_avg_sq f4 [10, 2888]
000000 a7 ec 09 32 62 d5 db 31 f9 df 9d 32 ef 6a 2d 32
       8.028258e-09 6.3979977e-09 1.8379056e-08 1.0094239e-08
000010 87 35 ba 32 34 e9 e2 31 3d 35 44 32 b9 b4 f9 31
       2.1677591e-08 6.603978e-09 1.14208065e-08 7.2673996e-09
000020 aa b0 11 32 14 8b 97 31 1a a1 88 32 2e 06 f0 32
       8.48028e-09 4.4104898e-09 1.5905744e-08 2.7942487e-08
000030 ef 67 1b 32 de 5a bf 32 2d 02 c4 31 9c c3 5a 32
       9.045819e-09 2.2276648e-08 5.704598e-09 1.27337465e-08
000040 40 7e f2 32 7b 11 95 32 70 a6 89 32 b6 b4 2b 32
       2.822992e-08 1.7353832e-08 1.6024586e-08 9.994599e-09
000050 16 82 ae 32 ee be c3 32 ab 3f a6 32 41 6b e8 32
       2.0315422e-08 2.2787813e-08 1.9353896e-08 2.7057128e-08
000060 0a db a6 32 4a a7 45 32 08 37 6d 32 b1 d3 94 32
       1.942455e-08 1.1504946e-08 1.3807728e-08 1.7325734e-08
000070 b4 58 9e 32 95 64 ab 32 83 06 a4 32 d1 66 80 32
       1.8433958e-08 1.995276e-08 1.9095074e-08 1.4947917e-08
000080 2f 40 0b 33 47 3a 14 32 30 f7 6d 32 61 38 b2 32
       3.2421834e-08 8.6279845e-09 1.385142e-08 2.0747565e-08
000090 0a 01 a3 32 c0 47 35 32 bf 5b 48 32 a8 7f 86 32
       1.897617e-08 1.0551901e-08 1.1662393e-08 1.5657704e-08
0000a0 a5 d6 3c 33 d8 9b 34 33 8c df c1 32 42 a8 3d 33
       4.396738e-08 4.2051255e-08 2.2569814e-08 4.415802e-08
0000b0 1b 52 e8 32 97 29 01 33 e3 a8 03 33 ed 1e da 32
       2.7045692e-08 3.007298e-08 3.0654416e-08 2.5392604e-08
0000c0 0e 41 ef 32 a9 57 27 33 45 64 38 33 9f ed 45 33
       2.7852845e-08 3.8962444e-08 4.2932033e-08 4.6083752e-08
0000d0 2b d2 d4 32 21 0a 45 33 f0 84 75 33 2b 01 0f 33
       2.4775622e-08 4.587685e-08 5.7164414e-08 3.3295844e-08
0000e0 d3 0c 88 32 93 01 3c 32 ca 62 c8 32 ab e3 61 33
       1.5838316e-08 1.0943398e-08 2.3327988e-08 5.2593958e-08
0000f0 e3 06 0d 33 c2 b9 1c 33 d4 0d 14 33 de 46 d3 32
       3.2835384e-08 3.6490526e-08 3.4471512e-08 2.459586e-08
000100 5b b9 08 33 b9 b0 02 33 b5 32 b2 32 d6 ad 86 32
       3.1833547e-08 3.0428712e-08 2.0744986e-08 1.5678705e-08
000110 0d bc 2b 33 ff 7d 04 33 a3 b3 fe 32 57 2d d8 32
       3.998507e-08 3.0848238e-08 2.9651181e-08 2.5166328e-08
000120 0a 01 d2 32 c2 b0 04 33 02 6c 2f 33 52 36 a7 32
       2.444769e-08 3.0894405e-08 4.0843595e-08 1.946606e-08
000130 7f bb 62 32 b8 7c 9c 32 73 52 d5 32 ee 72 02 33
       1.3197563e-08 1.8217506e-08 2.4833957e-08 3.037251e-08
000140 74 d7 cb 32 e7 d7 cf 32 52 c5 b8 32 89 7b f9 32
       2.3730287e-08 2.4196153e-08 2.151015e-08 2.9043592e-08
000150 9a c5 14 33 3f 99 a1 32 00 8c 2a 32 f3 79 ba 32
       3.4638653e-08 1.8812555e-08 9.927135e-09 2.1708706e-08
000160 79 a8 d7 32 3c 82 80 32 b5 58 d5 32 f6 27 17 33
       2.5105907e-08 1.4960385e-08 2.4836803e-08 3.519377e-08
000170 74 63 0d 33 c4 49 0a 33 b4 20 c9 32 54 d0 3f 32
       3.2919573e-08 3.219772e-08 2.3414351e-08 1.1165032e-08
000180 79 e1 b5 32 cf 71 3f 33 ee f2 f5 31 41 90 cf 32
       2.1173706e-08 4.457416e-08 7.1580564e-09 2.416357e-08
000190 8d d3 85 32 cb a8 0b 33 59 f6 98 32 ec 8c 6f 32
       1.557944e-08 3.2516976e-08 1.7807155e-08 1.3943673e-08
0001a0 5b a8 c4 32 20 d0 be 32 25 8c 2c 33 47 8e 2d 33
       2.2893962e-08 2.2213555e-08 4.017433e-08 4.0409102e-08
0001b0 a4 69 7f 32 b1 1b ae 32 79 34 e1 32 e6 cd 38 33
       1.4866973e-08 2.0268859e-08 2.621731e-08 4.3028102e-08
0001c0 d6 89 40 33 ca 97 87 32 03 ad a8 32 27 bb 9f 32
       4.4828845e-08 1.5785094e-08 1.963645e-08 1.8595143e-08
0001d0 f2 35 24 33 90 3b 06 33 bd 45 cc 32 d3 2f cd 32
       3.823329e-08 3.1253478e-08 2.3780439e-08 2.3886889e-08
0001e0 d5 73 a3 32 f6 16 b4 32 b8 9c 25 32 dd c3 f4 31
       1.9028372e-08 2.09652e-08 9.639898e-09 7.1236017e-09
0001f0 fd db ff 32 e6 24 cc 32 bf 14 0c 33 8b 28 96 32
       2.9785946e-08 2.3765505e-08 3.261516e-08 1.7480735e-08
000200 65 a1 b9 32 83 f4 05 33 fc 85 ad 32 7d c7 83 32
       2.1610228e-08 3.1188858e-08 2.020078e-08 1.5341124e-08
000210 e8 bc 89 32 c9 34 9f 31 a2 dd db 32 97 4f e2 32
       1.6034804e-08 4.63351e-09 2.5595742e-08 2.6346056e-08
000220 1b 70 c5 32 06 76 bf 32 26 c8 87 32 32 24 b6 32
       2.2984798e-08 2.2288997e-08 1.5807085e-08 2.1204048e-08
000230 26 ee ac 32 17 96 78 32 d6 f2 88 32 45 fe 07 32
       2.0131733e-08 1.4469626e-08 1.5942913e-08 7.915848e-09
000240 64 cb 2b 32 39 b7 cc 32 0e 01 b7 32 53 58 12 33
       9.999756e-09 2.3832046e-08 2.1304484e-08 3.4073604e-08
000250 7a 6e b5 32 43 63 f7 32 b8 9b 9b 32 23 7f f4 31
       2.1121412e-08 2.8799723e-08 1.8115188e-08 7.1157884e-09
000260 02 20 1f 32 f5 97 7f 32 87 c0 10 33 53 81 ac 32
       9.262296e-09 1.4877505e-08 3.3702715e-08 2.0082245e-08
000270 f5 da 9b 32 ca cb 7c 32 41 1d 3e 32 9e d3 34 32
       1.8143945e-08 1.4714667e-08 1.1066107e-08 1.0525495e-08
000280 ab 3b f0 31 08 71 4d 32 68 49 bf 32 b4 df 53 32
       6.9917028e-09 1.1958271e-08 2.2268708e-08 1.2332681e-08
000290 16 e7 49 32 7d fd 8c 32 e5 af c5 32 4b 5f 04 33
       1.1752283e-08 1.6413418e-08 2.3013806e-08 3.0820313e-08
0002a0 be 70 1b 33 d8 35 da 32 d8 b6 3b 32 e5 29 20 32
       3.6191288e-08 2.5403025e-08 1.09264064e-08 9.3227515e-09
0002b0 0c 96 92 32 00 ff 53 33 0b d6 f4 32 85 14 f0 32
       1.706487e-08 4.9359187e-08 2.8502674e-08 2.7949008e-08
0002c0 31 ee 8a 32 bc c0 88 31 51 32 e9 31 6c d8 d8 31
       1.6173631e-08 3.9800323e-09 6.786913e-09 6.3110317e-09
0002d0 f9 2c 71 32 74 84 89 32 04 71 4f 32 70 4e 91 32
       1.4038272e-08 1.6009132e-08 1.2074683e-08 1.6915891e-08
0002e0 54 04 5f 32 46 f4 8a 32 cc db f4 32 62 05 bf 32
       1.29812925e-08 1.6176397e-08 2.850529e-08 2.2237774e-08
0002f0 ba 37 81 32 d4 fc c7 32 8b 86 5b 32 7a 07 9c 32
       1.5042918e-08 2.3281622e-08 1.2778069e-08 1.816419e-08
000300 a5 cf e5 32 b7 6f d3 32 b9 10 98 32 8f 63 d0 32
       2.6753534e-08 2.4614435e-08 1.7702734e-08 2.4259661e-08
000310 7c 2f 9e 32 8e 2f 3e 32 43 7d 5c 32 54 b9 21 32
       1.8415214e-08 1.1070268e-08 1.2834167e-08 9.413572e-09
000320 7d 65 84 32 d4 b2 54 32 f6 19 94 32 84 e8 87 32
       1.5412974e-08 1.2380685e-08 1.7241273e-08 1.5821804e-08
000330 5d 81 f5 32 7e 23 29 33 52 48 35 33 e9 99 b4 32
       2.8580581e-08 3.938066e-08 4.220812e-08 2.1024748e-08
000340 51 b1 27 32 cb 00 88 31 b9 fb ba 32 38 c4 2b 33
       9.7609965e-09 3.958211e-09 2.176772e-08 3.99925e-08
000350 86 da 0a 33 a8 fa cf 32 1f d8 6d 32 bf 8b 51 32
       3.2329375e-08 2.4211957e-08 1.3844356e-08 1.2197176e-08
000360 8a 7e e6 32 c5 a0 3a 32 d7 d9 95 32 df e7 4d 32
       2.6833067e-08 1.086318e-08 1.7444945e-08 1.1985292e-08
000370 cb b5 a8 32 d6 f1 0a 33 c7 c8 ca 32 99 ae a9 32
       1.9640444e-08 3.2350577e-08 2.3607198e-08 1.9753587e-08
000380 ee 20 b9 32 95 6f 3d 33 50 b1 37 32 18 c1 3e 32
       2.155181e-08 4.4106475e-08 1.0692318e-08 1.110336e-08
000390 ce 50 4d 32 2f eb bd 32 82 f3 16 33 f2 eb 8d 32
       1.1950943e-08 2.2109445e-08 3.5146066e-08 1.6521856e-08
0003a0 e5 d6 90 32 25 34 ae 32 92 1e a4 32 1d 90 b7 32
       1.6861529e-08 2.0279979e-08 1.9106015e-08 2.1369539e-08
0003b0 c3 ee 2d 32 8e 50 36 32 1e f5 b2 32 91 dc bc 32
       1.01242135e-08 1.061211e-08 2.0833394e-08 2.1986382e-08
0003c0 63 18 c2 32 79 93 49 32 0c bf b2 32 bd 71 5e 32
       2.2595662e-08 1.1733271e-08 2.0808805e-08 1.2947962e-08
0003d0 cd 70 2d 33 55 3a 21 33 f8 34 01 33 4a ff 24 32
       4.0382293e-08 3.7538786e-08 3.0083328e-08 9.604102e-09
0003e0 70 2e a6 32 66 e6 f6 32 03 27 10 33 5e a2 01 33
       1.934606e-08 2.8742942e-08 3.3563094e-08 3.0182825e-08
0003f0 0c 06 ff 32 b6 b8 3b 32 a4 ce 70 32 dd 23 64 32
       2.9688657e-08 1.0926831e-08 1.4016823e-08 1.3279501e-08

exp_avg f4 [10]
000000 7d 18 af 38 72 b5 79 39 15 9a 2f ba 8f e7 47 3a
       8.3492116e-05 0.00023814084 -0.000669868 0.00076257525
000010 05 07 a3 39 6a b3 88 39 00 50 2a 3a 8e f2 20 3a
       0.00031095013 0.00026073615 0.0006496906 0.0006139659
000020 3f af 6b ba c4 55 6e 3a
       -0.0008990652 0.00090917596

exp_avg_sq f4 [10]
000000 bf 72 75 37 b5 93 4f 37 71 ad 0b 37 4a a3 ce 36
       1.4629854e-05 1.2372552e-05 8.325428e-06 6.1582878e-06
000010 82 1b b8 36 a2 9b c9 36 97 7f 8f 36 c8 47 91 36
       5.4868297e-06 6.008385e-06 4.2765855e-06 4.329693e-06
000020 51 60 90 36 6f 3d dd 36
       4.302747e-06 6.593465e-06
